params/small_50epochs_93percent/W1.npy (npy, 100480 bytes, 1 tensors)

array f8 [784, 16]
-0.06562831544494557 -0.0002617184879113166 -0.042838438369935075 -0.057532521267233794 0.054273306788773845 -0.044371254493727974 -0.07276824962041296 -0.018633090880010528
-0.05010518493239643 0.03706914079255409 0.02055918662568712 0.07775882477583862 0.060854268502981146 -0.03358375395095155 0.06252386340138713 -0.042783494532062295
0.061219495799007595 -0.061487571365291864 0.07424022342644401 0.011162559922444498 -0.00736808992807296 -0.01681021582278798 -0.0212224405119108 -0.05936922074306795
0.022725370552863527 -0.024966591770841796 0.06589330800894883 -0.0651828339711174 -0.005545791714460291 0.014783908291303022 0.03965925848658114 0.02688478534981334
-0.01272499544372839 0.04010376004778993 0.036372134098633255 -0.020511419996040503 -0.012468238115570934 -0.025200431947191508 0.048070029616820165 -0.061837646718596255
0.05464940079203115 0.015263692614911645 -0.022318105848072617 0.07662796147299275 0.07929531742223164 0.08116479542194291 -0.0691258425232175 -0.0016347976206012999
0.07289198084899665 -0.08506683264949261 -0.03464766784191296 -0.007013792624578519 -0.03844378522192774 0.01238721843395646 0.006271531792620674 0.059600934917041326
-0.04511521430580247 0.04435412507295955 -0.0011241109008914701 0.0805873594105502 0.06205750071530114 -0.08304110759014349 -0.017396532910792253 -0.042426635035477486
-0.0020705368542196095 0.08594624647628976 0.013724503069056718 -0.07464770238408004 0.04284651011407445 -0.05181565611680063 -0.006451158439318996 0.02354575048514919
0.07149826696592948 -0.027490841532835063 0.02858632169448988 -0.0804845615100324 -0.07579009743065354 -0.012918503428487285 0.015556764990701383 -0.037520646284564765
0.042030121117770075 -0.03102380266771084 -0.039800824271348456 0.03393384695287234 0.03613272065429869 0.08247782979012233 -0.0636104682741479 -0.06991291610245035
0.05745819841910266 -0.03875387933172284 0.07035746524469541 0.012401855076843826 0.01761835389480318 -0.085787469601273 0.011497613208047125 0.06417230957280098
0.08553176696814699 -0.020680651079286433 -0.057509577485464904 0.06994214886075772 -0.014830036907398828 -0.008265431868581322 -0.0053405757172971385 0.008216062531570381
-0.07609962713660846 -0.08396588312067355 0.046261171537042234 0.022972575469570197 -0.018332508177473367 0.02676595585575957 0.03685710072914021 -0.0361775510766461
-0.01871040980211655 -0.04375024978894676 -0.06267946250270717 0.015900766491070695 0.0411627684212664 0.01868066234423825 -0.0423651683165896 0.02449363014441401
-0.015405231518569387 -0.009259155061844312 -0.08434355489109623 0.04833045025505997 0.06883282572541269 -0.0360953403343552 -0.023926972499475604 -0.0014739065239726817
-0.017703185236636193 -0.022618432533996577 0.04260259533006411 0.026598094652050014 -0.031029168607291387 0.0233084602638626 0.03178717722570831 -0.010379722513302783
-0.04143807613580692 0.06285700738948119 -0.0856078559982782 0.037984296201746884 0.05351484433192566 -0.05006540010477919 0.012124535818910792 0.08350040906442557
-0.03436630730706188 0.019949882528465274 -0.014945112516731862 -0.010215489752740892 0.04377094265356041 0.007820368207066206 -0.038546459858070745 0.04181484760369339
0.010262864297486629 -0.033267976960697526 0.01681251065717032 0.041956594052572765 -0.07551516695763538 -0.05794780368480368 -0.02552230449045064 -0.04343149065347309
0.011497126615519285 -0.07810291311031384 0.0723332330217695 0.04077652199923451 -0.01392937221246579 -0.06029115392521881 -0.075735960505533 0.04143086961661932
0.011518984397735132 -0.01471256568447113 -0.03223012544706156 -0.07722000312870858 0.04475889498173302 -0.05008843619169883 -0.040234153781694364 -0.0462666258918959
0.011496324581893522 -0.03630909068164785 -0.0677685006526732 0.06456125644919114 -0.056584791795144224 -0.04919192504602658 0.04164493484682669 -0.007070657139061243
0.0752985545808206 0.06836988188981555 0.010535893762838588 -0.05821598808890999 -0.03328875601989126 0.028356942212049513 -0.03512159121509292 0.0022246281419938813
-0.06542343499638906 0.01063883049175859 0.07716065969517334 0.021209017645784436 -0.036881121436407864 -0.06669833133177251 0.0169902101000505 0.009463650922394819
0.0440794871729721 -0.08583797900349538 -0.06027285759928264 0.019919411477664267 0.012931382330106812 0.035657826174724336 0.0671928601296448 0.04483850051077294
0.01916485791933213 0.08583011965699078 -0.02687948366423513 -0.044882981810843874 -0.04008273244208783 0.02185754191360944 -0.06590268426624096 -0.014798781835654248
-0.02726020687977377 -0.06504844151802973 0.05699121495812917 0.057830128188064156 -0.04290029993981234 -0.06980820462301662 0.01968185216339988 -0.05471844749987767
0.014464133535887144 -0.018792196944046376 0.06246829666176925 -0.032605309748638824 0.003426563724528986 -0.07243703995038356 -0.02347807358195582 0.06977365935685795
-0.06142735788121329 0.04372071315467398 -0.00859725449143646 0.01114231773651983 0.06844572197863433 0.06958968409457159 -0.011199647814250166 0.08555304862066815
-0.03733537500516344 -0.04799744516949661 0.020128885262999868 0.015659817517115177 0.0035829130148488375 -0.03341945820739159 -0.011540823571388525 0.00804446010969146
-0.08199768757552726 -0.07535365052048852 -0.07991642324358791 0.05870848065034831 0.02077288811785613 -0.03233596728815276 0.012895604965474552 0.06534669467003737
00000000: a411 876c 04cd b0bf 0096 a958 e826 31bf
00000010: b204 9f77 ebee a5bf e82f 9912 e774 adbf
00000020: d038 68fb b5c9 ab3f 58b9 dd3d d4b7 a6bf
00000030: f18c 4ea4 f0a0 b2bf 00ea cf8f 8d14 93bf
00000040: cb12 4a05 63a7 a9bf 6228 caf6 b9fa a23f
00000050: 403d c2a8 770d 953f 283b 6399 00e8 b33f
00000060: 40a9 156a 4a28 af3f fae0 cac9 e331 a1bf
00000070: ae4d 875c 9001 b03f 6dc9 a5db b7e7 a5bf
00000080: 882f ab68 2958 af3f a7b0 3f88 4c7b afbf
00000090: 3a10 aa43 6801 b33f f0ca 736e 65dc 863f
000000a0: b0a5 6694 002e 7ebf 6451 ca7c b236 91bf
000000b0: 8085 c2df 55bb 95bf b101 f67a a465 aebf
000000c0: 2891 41cd 5145 973f 9ae8 979c d790 99bf
000000d0: f476 ec42 62de b03f d4a2 2a7c d2af b0bf
000000e0: c05d b420 2fb7 76bf f017 f294 0647 8e3f
000000f0: a0f0 5de4 374e a43f c886 5967 af87 9b3f
00000100: 3835 2efa 8f0f 8abf d02a b4e3 7a88 a43f
00000110: 4ef3 e04c 5e9f a23f f05f 4f18 f200 95bf
00000120: f099 8f97 f288 89bf cea8 3b5c 24ce 99bf
00000130: 0076 3e8a a29c a83f 4fcd a21c 2fa9 afbf
00000140: 8ca8 4b9a 01fb ab3f f026 c724 9242 8f3f
00000150: c890 e7ba 8eda 96bf ae53 7cdc e39d b33f
00000160: baee 0dab b24c b43f 8a7c ec4d 37c7 b43f
00000170: 1f17 f230 3bb2 b1bf c058 3a94 d6c8 5abf
00000180: ea18 e381 0ca9 b23f 3431 34a0 f0c6 b5bf
00000190: fe01 87d0 56bd a1bf c089 189f 7eba 7cbf
000001a0: 2577 8660 e7ae a3bf a07d 7f50 785e 893f
000001b0: b040 1f7f 2db0 793f 1037 8f84 0384 ae3f
000001c0: 02ac fd63 5719 a7bf a019 4379 95b5 a63f
000001d0: c027 9ce3 dc6a 52bf e2a9 2389 5fa1 b43f
000001e0: d061 1630 00c6 af3f b8c2 5299 2e42 b5bf
000001f0: a49d a98f 65d0 91bf 0ed5 e9a3 f1b8 a5bf
00000200: a080 5e02 3bf6 60bf f661 d4bd 9200 b63f
00000210: 8800 af9e 971b 8c3f e90e 76a0 1c1c b3bf
00000220: fc17 604f faef a53f a387 e2e8 9487 aabf
00000230: 1081 4aa8 876c 7abf 2489 2c91 601c 983f
00000240: 44df 56de b54d b23f 56cc 4a25 8f26 9cbf
00000250: 70bf 2993 bb45 9d3f bbbb 84df a29a b4bf
00000260: 8e47 d3d5 fa66 b3bf e8af e82d 0475 8abf
00000270: 90d6 eea6 39dc 8f3f 4219 6ff9 e735 a3bf
00000280: c4a4 4bd7 f884 a53f 96e7 6b27 b4c4 9fbf
00000290: 70d5 320d c660 a4bf 6ab5 c7f5 c65f a13f
000002a0: ba2a 0deb fc7f a23f 22f8 975d 441d b53f
000002b0: b4b3 eb90 c648 b0bf 425f 3a18 d0e5 b1bf
000002c0: 58ba 3136 296b ad3f 8550 a568 8cd7 a3bf
000002d0: 6e63 4164 f202 b23f 60dc b7cf 2466 893f
000002e0: 486f 26b7 8b0a 923f 6d14 58e8 2af6 b5bf
000002f0: 9059 af85 0f8c 873f 2a89 ecb2 986d b03f
00000300: 6eb4 e5ed 68e5 b53f 689d 2e00 4f2d 95bf
00000310: cd81 0335 e571 adbf 040b f889 bae7 b13f
00000320: 0842 20dc 355f 8ebf 88c3 807c 77ed 80bf
00000330: 50fb c2e0 ffdf 75bf 88f8 ff3e 95d3 803f
00000340: 791e cae1 437b b3bf 40a9 fbc1 c97e b5bf
00000350: 4009 a755 8baf a73f 3c04 6371 1f86 973f
00000360: e8b8 4dcc c1c5 92bf 7cc9 2fe4 8868 9b3f
00000370: 169a 8314 efde a23f 0f77 722d dd85 a2bf
00000380: 5886 c758 d228 93bf 581a 12c8 6e66 a6bf
00000390: f079 94e1 c20b b0bf d0ee 3d60 4a48 903f
000003a0: 2c44 5d50 4913 a53f 5c30 5807 0621 933f
000003b0: 298e d128 e3b0 a5bf 6ce9 b8b1 db14 993f
000003c0: a8fc 792c c78c 8fbf d807 6fc1 76f6 82bf
000003d0: 3fb9 e209 8a97 b5bf 0c2d 7ece c4be a83f
000003e0: 2ec5 612f 079f b13f aa4f 8ca4 167b a2bf
000003f0: 9c99 82f1 4f80 98bf 4039 5714 0326 58bf
00000400: 686a 81a6 c820 92bf ecc8 1450 4929 97bf
00000410: 98ae 55e3 01d0 a53f 6876 aaea 873c 9b3f
00000420: 72c1 8f41 1cc6 9fbf e8af 364a 2cde 973f
00000430: 7caf 3bad 6846 a03f c8b7 e3c5 f641 85bf
00000440: 49f9 9f1b 5f37 a5bf c0ef 0f97 6517 b03f
00000450: 8d14 cb7d 65ea b5bf ba6a e57b ad72 a33f
00000460: 5026 8334 4c66 ab3f cbec 3810 2ca2 a9bf
00000470: 703b 92a6 bfd4 883f 7063 2266 4860 b53f
00000480: fbac efeb 7598 a1bf 5840 13f4 bd6d 943f
00000490: e089 f40b 8b9b 8ebf 8085 34d3 dbeb 84bf
000004a0: c09c 6c1e 2569 a63f b845 890d 2004 803f
000004b0: 6619 ef90 5cbc a3bf 74e2 e375 c168 a53f
000004c0: 60fd 2a54 b204 853f f4bd 1912 8008 a1bf
000004d0: b0aa be7d 4c37 913f bc5c 9dae 557b a53f
000004e0: b85d 6f44 f654 b3bf 900b 67a3 55ab adbf
000004f0: 768f 6bdc 8422 9abf d346 f2ff a63c a6bf
00000500: 0836 7e36 ce8b 873f faf7 8771 8dfe b3bf
00000510: 0611 3e46 6e84 b23f 2cd8 dc08 a9e0 a43f
00000520: f0ce d9b0 0087 8cbf 159f b16c 7bde aebf
00000530: 109e 8091 6e63 b3bf 4cb0 184c 6d36 a53f
00000540: 40d7 2bea 4397 873f 10f4 a323 9f21 8ebf
00000550: 5972 7b8d 7780 a0bf 08ea 08ac b0c4 b3bf
00000560: 00a4 4d4c a3ea a63f 37c7 b306 31a5 a9bf
00000570: bf66 592d 9299 a4bf 1134 345a 42b0 a7bf
00000580: f8d4 d390 628b 873f dae3 0cea 1a97 a2bf
00000590: 448f 00c6 4659 b1bf c4b6 0925 1687 b03f
000005a0: 1417 6c8c aef8 acbf 5695 991a af2f a9bf
000005b0: a81e 6c22 7c52 a53f c0a4 c612 1ff6 7cbf
000005c0: 8a56 5c1d c446 b33f 2286 bf46 b080 b13f
000005d0: 8007 2ab9 d793 853f 8873 e469 7cce adbf
000005e0: 3423 dc4c 390b a1bf 3848 a92d 9a09 9d3f
000005f0: ecfa 4d0b 75fb a1bf 2033 b323 6239 623f
00000600: ba93 b319 97bf b0bf ee02 3da8 cfc9 853f
00000610: c5b5 ed0d cdc0 b33f 44fc ac14 d1b7 953f
00000620: 8f7f d114 15e2 a2bf 498a c44f 2413 b1bf
00000630: 7873 edb2 e165 913f e116 b3b9 ad61 833f
00000640: f72b aa27 9691 a63f a422 9350 7af9 b5bf
00000650: 8865 7380 15dc aebf 1896 6813 c165 943f
00000660: 3a5b 99c1 c47b 8a3f 4ea6 881a be41 a23f
00000670: 2312 c820 8d33 b13f 1a45 976a 12f5 a63f
00000680: 2cec fbd7 f39f 933f 4c44 f074 f6f8 b53f
00000690: 2bc4 159d 4b86 9bbf 2790 0cf6 e6fa a6bf
000006a0: 4138 f251 b985 a4bf 9e75 c2ce d261 963f
000006b0: e461 a491 ffde b0bf dec6 09e0 d24e 8ebf
000006c0: f28f 1f84 19ea 9bbf e3c7 f9c0 03a7 b0bf
000006d0: cc16 cfd8 f32d ad3f 381b 951a e99b ad3f
000006e0: accd 7532 07f7 a5bf 502c d953 f3de b1bf
000006f0: 394e 77bd 7a27 943f a4ee ff6c 0e04 acbf
00000700: 384d 0324 5f9f 8d3f 0fbe 2dfd 423e 93bf
00000710: b3f3 6536 d8fb af3f adbb 17a6 a4b1 a0bf
00000720: 00ec 4d64 0612 6c3f 121f 9bdd 3b8b b2bf
00000730: 5490 d4d8 a20a 98bf d658 0fc1 afdc b13f
00000740: 49e7 5b1a 6873 afbf 4372 50b2 8f62 a63f
00000750: 4845 02f7 6f9b 81bf 306d 3d92 c8d1 863f
00000760: 2208 73a9 a885 b13f 723d 5329 a1d0 b13f
00000770: eb1c b648 d7ef 86bf 301c e6f9 cde6 b53f
00000780: fa1b 434d 9f1d a3bf 18ce 9602 1f93 a8bf
00000790: 6b59 a39f aa9c 943f 78ac 6390 2009 903f
000007a0: 405c 24c7 e959 6d3f 9400 1af0 5a1c a1bf
000007b0: 00d3 761e b7a2 87bf a449 ae28 9d79 803f
000007c0: 2f09 7cea ccfd b4bf 6ba5 9e78 604a b3bf
000007d0: d697 3e18 6775 b4bf 943d c8b8 090f ae3f
000007e0: 784a 70ec 7c45 953f aa6a f903 578e a0bf
000007f0: 28f6 b5cc 0269 8a3f 1e6f 829c 8fba b03f
