params/small_50epochs_93percent/W2.npy (npy, 2176 bytes, 1 tensors)

array f8 [16, 16]
000000 2f a0 c2 b1 c3 5d d4 3f 89 cb 5a 94 4e 59 b1 3f
       0.31822292670631475 0.06776896593036787
000010 12 31 75 de d1 7b b7 3f d2 e5 19 2e 87 4f d2 3f
       0.09173309022043366 0.28610400678698256
000020 8c 71 7d 97 e0 02 8d 3f 54 ef b8 21 70 34 ca bf
       0.014165644286259015 -0.20472528120614675
000030 a4 fd 12 90 4c 59 d3 3f 9b fb b1 77 e8 2a db 3f
       0.30232538289780053 0.4244939011477357
000040 e1 65 51 eb be c0 d3 3f 77 e7 3a 52 9d 79 dd 3f
       0.3086392686869584 0.46054776220591215
000050 47 90 97 8d dd a9 d9 3f df 55 e9 d5 53 a2 b2 bf
       0.40099276378009957 -0.0727894208187858
000060 cb e9 f8 5c b0 c2 d7 3f 41 6d 05 c6 cb 56 cc 3f
       0.3712578685696399 0.22139880341533494
000070 6a f0 54 dd 52 58 d5 bf 0e f5 34 72 6c bb 85 3f
       -0.333515850204782 0.010611388430897619
000080 6b 7e 98 8f 72 90 de bf 78 4c a3 eb 52 a2 ec 3f
       -0.47756637595191503 0.8948149301817372
000090 13 cf 77 c0 df 27 d8 bf b0 99 32 14 07 80 9f bf
       -0.37743371768668615 -0.03076182423378676
0000a0 df 5c 8e 67 50 b5 ef bf 9d 50 f2 d4 5b 63 d9 bf
       -0.9908830664234322 -0.3966893748813705
0000b0 79 52 c8 c1 45 eb f2 bf 62 3e c4 f5 e5 af cb 3f
       -1.1824395722989307 0.2163054895431627
0000c0 d9 e7 4e 47 d9 c2 ad bf 3c cc 27 fc 82 95 ce bf
       -0.05812720294439062 -0.23893773376730276
0000d0 d3 d0 46 79 33 21 e2 3f 89 2d 2b 83 67 a7 e2 3f
       0.5665528649028836 0.5829351007354698
0000e0 8b e2 c4 9f d6 6f d9 bf ab d7 91 01 ea 49 e6 bf
       -0.3974510727162303 -0.6965227156313082
0000f0 8e 57 18 0e bf 41 db bf fa ba 2a f7 a8 fa c5 bf
       -0.42588783623193016 -0.1717120367879586
000100 64 46 85 28 70 68 a9 bf d6 23 12 5f 3b 88 ec 3f
       -0.04962492460857673 0.8916298729756089
000110 a7 70 98 f9 a3 ee d0 bf ef af 77 21 42 6d c3 bf
       -0.2645654618697883 -0.15177179941326766
000120 c1 1b 17 e7 27 e3 c0 bf 9c 3f 03 55 ea f7 c8 bf
       -0.1319322470064588 -0.19506577635774824
000130 32 b0 9b da 05 18 d5 3f c3 df 75 dd 15 e3 95 bf
       0.3295912394376074 -0.021374074594376468
000140 c1 ab 3b ca 86 68 bf 3f b4 19 21 3b 9d a5 d6 bf
       0.1226886981709603 -0.3538582875666194
000150 8b 97 12 7e 99 51 e0 bf d8 f7 ec 55 49 e9 c3 3f
       -0.5099608862262682 0.15555683799351416
000160 f4 b8 33 6f cc 4e f2 3f 8f e9 93 60 27 4d ad bf
       1.144237932570431 -0.05722926191261301
000170 74 4f 4a a9 72 5b f1 bf 9e 78 8e d5 bb 61 f1 bf
       -1.0848261464024889 -1.0863607732822298
000180 3c 32 16 40 7d b2 95 3f fb dc 29 b4 7b db cc 3f
       0.021188694988767617 0.2254480962471702
000190 c7 80 55 88 0f 12 a0 bf e5 90 52 76 1a cb d5 bf
       -0.03138779200776436 -0.3405214457982438
0001a0 98 bb 2f e2 12 d1 ac bf d4 4e a4 bd 49 f4 b7 3f
       -0.05628260623040332 0.09357128982474744
0001b0 c6 5c c9 26 ca 5c d9 3f 0d d3 ae 31 f3 e4 ab bf
       0.3962884310507885 -0.05448112470131692
0001c0 cb 7d 33 5a 40 2e c1 bf 9f a3 71 d5 e3 b6 cd 3f
       -0.13422397999145938 0.23214385912004062
0001d0 60 e9 6d e6 f3 84 c3 3f b6 d9 7f f1 52 ec b3 3f
       0.152494895471885 0.077824768028086
0001e0 dc fb 92 c4 71 3d b6 bf 8e 85 5a 47 51 ab d5 bf
       -0.08687506722615929 -0.33858139007687604
0001f0 23 79 f9 07 98 b6 92 bf 14 fb 3b 85 35 a0 b4 bf
       -0.018274665343022477 -0.0805695963172009
000200 17 fb 87 42 81 40 cd 3f f5 77 d6 67 23 3c d2 3f
       0.22853103397934468 0.2849205507317259
000210 ef b0 be c2 49 9d c2 3f a6 a1 83 ed e1 87 db 3f
       0.14542505272891712 0.4301686114763704
000220 ca 6e a7 38 e9 e3 6d bf 0f 04 31 a4 2d e5 c6 bf
       -0.003648715505944232 -0.17886896626626522
000230 67 31 90 c4 20 c8 bf bf fc 06 28 12 61 72 af bf
       -0.12414746092708172 -0.0614195189155122
000240 25 26 c7 97 d2 18 d9 3f 55 27 81 c6 ec 58 d6 bf
       0.39214005300581994 -0.34917754540639595
000250 ca 34 4e ee f0 cc 8a bf 55 b0 02 af f3 74 cf 3f
       -0.013086206696039677 0.245756588415477
000260 12 bb 6b ab 90 47 d4 bf d6 d7 62 6c 2a a7 c9 bf
       -0.31686798801722305 -0.20041399280824973
000270 1c 7f a2 c4 a3 ca c6 3f ac 56 22 72 fb 7e a2 3f
       0.17805907346063854 0.03612504738081887
000280 2f 97 7a c6 77 1f de 3f a2 ec 95 dc 57 69 ba 3f
       0.4706706465025147 0.10316990981475496
000290 16 c2 ef bf 77 ef d5 3f 38 11 fe ec c6 ea e1 3f
       0.3427409529095099 0.5599093083151621
0002a0 29 0e bf ae 44 2d a3 bf 65 1a b5 69 fa f3 d9 bf
       -0.03745474465497651 -0.405516246061245
0002b0 66 44 87 76 6e 10 f0 bf 58 8e d1 0b 52 fb d4 3f
       -1.0040115957274565 0.32783938554914505
0002c0 88 ea 93 ae 5d 37 ea bf ce 7b f0 67 e1 21 d3 3f
       -0.8192585382197004 0.2989429011376473
0002d0 e4 91 c0 60 0b 1c d5 3f 52 aa cf 01 3c d2 de bf
       0.32983669708690244 -0.4815816896140507
0002e0 09 fd 89 ca 9d 5e ed bf 81 73 75 f4 54 2a e4 3f
       -0.9177998500671559 0.6301674627862753
0002f0 9d f3 5a 2c 33 34 c4 bf d4 30 a8 d6 24 8b e0 bf
       -0.15784301439080375 -0.5169853394050059
000300 97 86 54 40 1a 9b d0 bf dc db 25 8d ca 56 c4 3f
       -0.2594667080139543 0.15889865772234557
000310 02 5c 79 5d 84 35 d4 3f d8 43 8d 8a 43 31 c7 3f
       0.3157664215881938 0.18119091286874212
000320 78 07 2b d2 3a 00 92 bf be 57 27 ae 21 19 d4 3f
       -0.017579001500741737 0.3140339089126164
000330 1e 26 01 54 56 9f dc bf 72 a7 6e 2b 2f 37 a0 3f
       -0.44722517207682866 0.03167102246454946
000340 d9 d5 a1 b6 58 5c cf 3f 24 9f 42 6c 67 ac 90 bf
       0.24500569264971153 -0.016282669050865853
000350 89 8b 12 52 d6 68 d5 3f 69 23 4c 90 cc 87 cd bf
       0.3345237542618454 -0.23070675893566353
000360 85 63 4d cf 3d c8 d9 bf 09 f0 70 57 05 9e d9 3f
       -0.40284676784863677 0.40026982821632423
000370 53 30 6b 72 ba 0d a3 bf ba 1a 42 03 17 b8 d2 3f
       -0.03721411368096086 0.29248595541177347
000380 32 b3 be 6e f9 9f eb bf 0f 22 8d a8 75 c8 d1 3f
       -0.863278118418384 0.27786008319938643
000390 5a 6c 27 56 09 2c c8 bf b1 40 dd 66 0e 87 ec bf
       -0.18884388643968714 -0.8914863595073453
0003a0 90 f3 55 b6 61 f9 dc 3f 1f 1d 5d c4 95 f6 b0 3f
       0.45272105032182086 0.06626258892093916
0003b0 3b cc 74 6b 0b 4d bf bf 77 0b bb 43 f8 94 aa 3f
       -0.12226935742801086 0.05191779925146183
0003c0 0d b2 9c 70 2e c4 ee bf 04 84 09 74 2c 34 d5 3f
       -0.961447925515644 0.331309426610517
0003d0 9a 6b f5 fe 2a 8c c0 bf c3 a9 c3 d1 ff 49 c8 bf
       -0.12927758645204507 -0.18975827925107866
0003e0 40 2a a2 60 3c f0 c1 3f 2a 12 41 88 c5 05 ef 3f
       0.14014391630583312 0.9694545422758598
0003f0 05 16 df 0d a8 5d ee 3f 10 93 ac c5 d9 b0 bc bf
       0.9489326735426294 -0.11207352710750862
000400 2b c5 35 d1 b4 ea de bf c3 74 8b f8 01 b1 e2 bf
       -0.4830753367487712 -0.5841073851003319
000410 fc a1 28 bd 45 c2 a8 3f 6f 9b 3c a9 b0 99 d1 3f
       0.04835718092028071 0.27500549819017456
000420 3a 88 c5 75 18 0a c2 bf 87 18 6e 37 2f 11 d0 3f
       -0.1409330916458787 0.2510488549527356
000430 ad 63 a4 03 0e 34 c3 bf c2 73 44 da 0c 18 d8 3f
       -0.15002608468856007 0.37646790805029806
000440 ce 4d 59 53 36 37 e5 3f bf bf bd 5d 1c 86 dd bf
       0.6629897716433619 -0.46131047396101715
000450 e3 2a c9 a3 02 2c f4 bf 15 27 4e 67 7b 08 e8 3f
       -1.2607447049983243 0.7510354058915448
000460 44 ec fb e4 e9 db c3 bf 44 99 e1 7a 18 5e db 3f
       -0.15514873200285895 0.4276181411754758
000470 5f b9 46 32 67 77 cb bf e6 00 87 9d 33 0c a5 3f
       -0.2145813937654095 0.04110871599141479
000480 a7 4b 70 76 0d 0b df bf 83 07 21 05 8a bd ec bf
       -0.48504959646487084 -0.8981371021438779
000490 72 96 78 cb c4 2f ca bf 01 7f 6b 14 3a 57 c5 3f
       -0.20458278594121598 0.16672445294442897
0004a0 b5 21 55 f2 8a 72 d8 3f e3 29 c2 22 02 9d ce bf
       0.3819911352661863 -0.23916651436986944
0004b0 65 3b 3f 09 f0 a2 99 3f 87 af 02 49 2d d5 e1 bf
       0.025035620273964016 -0.5572725702272557
0004c0 9e 29 69 a6 36 dd eb 3f 54 7c 26 25 04 10 e2 3f
       0.8707535982332961 0.5644551015465233
0004d0 f4 df ad fd 8e cd f4 3f c4 5d 46 6b 0d f0 dc 3f
       1.3001851949065868 0.4521516368490348
0004e0 b3 a4 3d 79 32 8d ea 3f 93 91 f8 01 9a 40 e5 3f
       0.8297359817489877 0.6641359365935834
0004f0 05 9e 32 bb 6b c8 c9 bf 63 d7 96 a8 4a a0 a8 bf
       -0.20142885818971493 -0.04809792812322546
000500 82 b9 23 da 9c 20 b6 3f 25 a3 97 ae f7 55 d5 bf
       0.08643513036415665 -0.3333720402720693
000510 ac 0c e6 2d cb 07 c4 bf 8a d6 31 39 05 ed 88 3f
       -0.15648784390586934 0.012170830543463813
000520 73 a8 1c 25 a7 76 c9 bf 89 9a e5 ee 2f 30 cb bf
       -0.19893349945170122 -0.21240805783164188
000530 70 f0 c0 90 de 05 c7 3f 8f 5e 8c e9 4d 73 c1 bf
       0.17986661975908502 -0.13633130935408075
000540 91 a7 60 c7 bc 9a d3 3f b4 df 03 fe a5 f5 be 3f
       0.30631942244019067 0.12093579722920716
000550 d0 79 15 33 d9 1c b4 bf 49 ca af aa 4b 27 c0 bf
       -0.07856519219556124 -0.12619920572577062
000560 38 ae 95 9e 0b 4d b2 3f f0 e6 46 13 a7 e8 b1 bf
       0.07148811933228039 -0.0699562475264448
000570 17 08 60 03 a4 bc c8 bf 4a f7 0f af 0d e9 d0 bf
       -0.19325685658265065 -0.26422445388731275
000580 c0 a6 cc 19 0d 8b d4 bf a0 e5 01 39 61 c7 cb 3f
       -0.32098701018786 0.21702208789410538
000590 08 4b 87 2b c3 5d ae bf 0f c9 8d 08 b4 31 d9 bf
       -0.059309100211654864 -0.3936586459668811
0005a0 7c 9e 72 26 38 36 a0 3f 60 65 83 ce 41 b6 84 bf
       0.03166366071064616 -0.010113252749237744
0005b0 80 87 1b e7 0e a0 72 3f bd cc bf af d2 d5 bb 3f
       0.004547174657746456 0.10873142996551884
0005c0 ad fe 5d 45 b7 b4 d7 bf 03 d3 f5 11 19 fa b4 bf
       -0.3704050233281844 -0.08194119156344119
0005d0 0c 62 d3 49 5c f2 d9 bf f3 72 02 b9 c5 33 d7 3f
       -0.40541751107733215 0.3625349337324188
0005e0 a0 a3 46 a3 9b b9 c1 3f 83 a9 a2 f3 a2 e8 d0 bf
       0.13847680542428709 -0.26419900696296156
0005f0 b7 2a 40 2a fd c3 d6 3f 9a a7 83 91 91 03 d2 bf
       0.3557122147182485 -0.28146781168345003
000600 68 c2 ea 66 a0 5c cd bf 1c 10 eb 52 8c 94 de bf
       -0.2293892385983043 -0.4778166589496793
000610 8e e2 54 7e b0 97 bc 3f 15 cd 2e bb f4 25 dd 3f
       0.11168959697978151 0.45544164924213365
000620 82 35 20 d7 21 50 e1 bf 98 54 cb 8f d5 b5 da 3f
       -0.5410317613292792 0.41734828035743865
000630 f1 96 94 05 59 88 e5 bf 1d 51 8e 0c 51 db e6 3f
       -0.6728940114014376 0.7142720456345476
000640 cd de f0 e8 74 8a cd bf 1a 3c 9c 2b 8c 08 8f bf
       -0.2307878625303971 -0.015153021889572616
000650 52 a1 23 71 b7 45 e1 3f 46 40 b3 b5 3f 36 ea bf
       0.5397603235005966 -0.819122176058962
000660 65 41 7c 73 fc 91 d9 3f 09 d8 a5 43 6d 4d ef bf
       0.39953528669231836 -0.9782015153166422
000670 76 3e 2a 55 a7 eb b2 bf 7e 08 da b9 bb 11 c1 bf
       -0.07390828923439038 -0.13335367750920918
000680 a6 de 8e 20 67 8a d6 3f 16 31 ce 58 ba 00 b9 3f
       0.35219743899822686 0.09766735714055516
000690 20 18 fe 86 d2 f6 df bf cc 2f 91 dc 8f 09 c6 bf
       -0.4994398420607258 -0.17216680784110705
0006a0 fd e6 b0 fe df bb e2 bf 3b 46 c8 d9 2e 50 b1 bf
       -0.5854339575227808 -0.06762974564505779
0006b0 a7 dc df 88 04 54 e3 3f ef f6 13 c4 0b 37 ee 3f
       0.604006068547183 0.944219477619951
0006c0 e3 f9 63 25 12 0c d1 3f d1 1c bc de a4 b4 e0 bf
       0.2663617482320701 -0.5220512724198675
0006d0 dc b3 b7 cb 3e f3 c4 bf 07 43 fb 19 20 10 f0 bf
       -0.1636732573237215 -1.0039368643667232
0006e0 cb 63 55 41 ce eb b6 3f ae 82 db c0 51 84 cb 3f
       0.08953560919816465 0.214975566071208
0006f0 cd bc 2e 83 03 31 a3 3f 14 29 9b 1c 32 0e f3 3f
       0.03748332001065933 1.1909657590318306
000700 e5 9c 93 5e 8d e0 d9 bf 9d c5 7c 60 28 17 a7 3f
       -0.4043305801009878 0.045098554399724856
000710 13 85 d8 81 b2 5a dc 3f 77 bf 7c 37 95 89 f0 3f
       0.4430357234978867 1.033589569804432
000720 8b 3c 42 1c 8e 12 e1 3f 3b f4 a1 fe 31 f5 88 3f
       0.533515029137463 0.012186422904273289
000730 4f 14 bb 6d 88 1f ee 3f 27 af de 21 9d 8a a9 3f
       0.9413492339305182 0.04988566435289803
000740 65 37 71 49 90 23 c8 bf 06 20 f2 eb e6 49 eb 3f
       -0.1885853155712837 0.8527712448421887
000750 b0 e4 8f fd 37 e2 ba 3f 48 76 8d a3 1e 55 df 3f
       0.1050143236206107 0.4895702931588386
000760 6e ba 0f 5d 23 59 db bf 74 e0 99 78 49 30 d0 3f
       -0.427315560226737 0.2529472043747838
000770 8c ec f3 48 9e 0f d1 3f bf 3f e9 3b d0 75 e1 bf
       0.2665782654218638 -0.54563152028458
000780 20 f5 26 33 d4 a3 ab bf 4e ed 36 a3 3e 3f c6 bf
       -0.05398429035583718 -0.17380507440052856
000790 5b db 5a 5c ee 6f c4 bf 0d 95 39 f0 0c 4d 9b bf
       -0.15966586598889418 -0.026661111986318754
0007a0 55 ef 8a b9 5e ac d8 bf 43 b0 4a ea 41 81 db 3f
       -0.38552063102155404 0.4297642505650893
0007b0 a7 23 ce f6 bf c2 ae 3f ac b6 e8 65 e0 aa e6 3f
       0.060079573514549005 0.7083589544688116
0007c0 2d 8c a0 fc ff 7d cb bf bb 11 23 21 a3 05 ed 3f
       -0.21478271327313916 0.9069381377417395
0007d0 e0 b9 45 8c 8a 9b 56 3f 70 d0 23 14 c5 6c f3 3f
       0.0013798573500839392 1.2140551363673033
0007e0 fd 4b b3 6d 07 0d d0 bf b2 60 b7 bb 8b 37 f2 bf
       -0.2507952281277424 -1.1385609944027633
0007f0 22 0f b8 6c 50 8c e8 bf 97 9e f3 07 98 b6 ea 3f
       -0.7671281932275387 0.834789290934128
