params/small_50epochs_93percent/W3.npy (npy, 1408 bytes, 1 tensors)

array f8 [16, 10]
00000000: cf4e cfc3 770b c2bf 5000 14f2 1946 d2bf
00000010: 5128 747f ee9b cb3f 9aa6 5306 10e7 ad3f
00000020: e46c 6761 2f33 cabf 7742 10e5 b152 d1bf
00000030: fee2 4c92 4b0a 61bf 4f0d 51c6 368b c9bf
00000040: 1abf b887 877e d13f 16d0 fa96 db6d e03f
00000050: 55da 2ea5 8e5a d9bf afc4 20b1 8ea3 e83f
00000060: 0e66 3fe8 1e72 e43f 6ba5 fc3e 87c9 d5bf
00000070: 9edb a1a3 3d45 d5bf d2b9 d7aa 6863 d0bf
00000080: 0055 33e7 211a c6bf 34b4 9691 3ebb e73f
00000090: 6e34 6e74 78c0 a73f 3baa 67a6 5785 e4bf
000000a0: 4ca9 2e36 66e0 d0bf 331d fa66 af34 d4bf
000000b0: 9d11 1dfe d898 d0bf 58fe 0734 952c c2bf
000000c0: 666c af63 2bf7 d9bf 5b04 ba83 f503 db3f
000000d0: 245e 796f ce9a cabf 6f0b 0e58 2d63 d3bf
000000e0: aa09 1bd7 0534 e8bf e1b1 a4d6 62f8 813f
000000f0: bf14 a0ce 754d ee3f b329 2b43 b3ab cdbf
00000100: 7f02 a4b9 068b d83f 2414 ba21 10ea d3bf
00000110: 5044 d14a 8048 e23f ba39 a159 b21c dc3f
00000120: 86f9 04e4 d1f5 6f3f 2aa9 2416 48d1 e13f
00000130: 7894 1700 55e6 8ebf 24b5 13bb 7d1a cbbf
00000140: b4c1 2951 aeda d0bf 032b 26e5 de8c c03f
00000150: 75a3 a417 53e8 89bf c74e 654b 15a6 c1bf
00000160: 6059 4a8c 576d e83f 8258 2c97 6498 b5bf
00000170: 3473 febe 1597 e2bf 19b8 2c6f 8298 c13f
00000180: 4bf1 0b3d 17fd f0bf b96d f64e 3c82 d53f
00000190: 1713 1f60 c04b c5bf 62fb 0c52 16e6 dcbf
000001a0: 5162 4330 6324 c63f 3181 2fc7 8a5f e0bf
000001b0: e969 52b7 d613 d2bf 034e 74d2 3401 d53f
000001c0: 561c 2f86 a9ce d0bf 62d2 2927 b645 c9bf
000001d0: d4e6 396e f837 b4bf f277 e710 3287 cbbf
000001e0: f795 b6cd d9ee e8bf 28e6 399c 5876 c3bf
000001f0: b6d9 6b58 0b21 e3bf 436f 7d5a 2899 d2bf
00000200: 28be e56d d71e adbf fc6f c1aa 64bd e43f
00000210: f27c 3fdb f3b6 c6bf 75c2 f9df 42be e9bf
00000220: 7dbe a8b6 3615 e93f af45 f5b9 5694 c4bf
00000230: db5f 5ddd afce e73f 11dd 5d86 c133 f5bf
00000240: 2630 7d7a 7139 eb3f 2a18 d8fb 190c d03f
00000250: f0b2 b666 4970 debf ce06 6105 67d7 c63f
00000260: a1e6 eef8 a222 cb3f 42b9 6a04 c22c e3bf
00000270: 8aa8 8892 06b6 cc3f e801 ef84 2a4f d8bf
00000280: 03d5 a8ae d784 a9bf b3b4 cb75 3261 bfbf
00000290: 6302 59e6 30a9 c93f f40d 13ff 2f50 c73f
000002a0: 3646 8363 2c92 e2bf 3d34 d28e c2a3 da3f
000002b0: 4a8b ebb5 308e d5bf 06d1 6625 0bed e73f
000002c0: 0626 b90e 60bf ecbf 5335 b0f1 e1eb e1bf
000002d0: fa3a a09c bf70 e4bf 7aa1 7053 0bc8 c3bf
000002e0: a25e b230 54bb bc3f ef37 5de1 f4f6 e53f
000002f0: d45e 7c85 7808 b63f 797a cce6 0093 c8bf
00000300: a3bf e978 2a0e ecbf 6e3d 67a3 e3cc e63f
00000310: 5528 2e4a 165e dbbf df89 6b75 1809 d23f
00000320: 880e 0d1b a4f1 cdbf 1e2a 8022 538b dcbf
00000330: ea7b a838 f358 de3f 9424 bd07 148b f2bf
00000340: 5a9c ccc3 f8b9 d83f 1212 0b95 ff0c eabf
00000350: a8fb 3940 b476 e43f 307d 1072 d89e ca3f
00000360: 669a 0f09 6e61 a43f bac5 1c94 5659 e1bf
00000370: 18a1 2161 d6b3 a7bf 5497 ed4b d511 c63f
00000380: ffeb d313 928b c7bf 686f d17b fde1 e83f
00000390: 3a11 c389 1dd3 f1bf 41a9 92f4 1864 d53f
000003a0: 6bfe 45a6 cf37 f5bf ee1e 9388 fc15 d13f
000003b0: 3960 9899 eaf4 e13f 4cbf 2eba 317d e33f
000003c0: e455 1ac4 3eeb e3bf 9a70 9d79 3a04 e93f
000003d0: cb2d c8d8 b21f ddbf 8e7c b407 1acd cd3f
000003e0: 18da 9d53 d089 783f 24c9 1ef0 d3ae b73f
000003f0: 6227 5981 1938 e73f be1f adf4 061d f1bf
00000400: 1142 d474 c6c0 b9bf b991 f16f d0d6 e6bf
00000410: 7109 50b3 c5e5 d63f 54b2 66b6 91ce b03f
00000420: 4db9 d757 7d0c dfbf e467 000f 88bc dcbf
00000430: 4ea9 9109 77b5 f03f e1a8 7e48 5982 eabf
00000440: cf0d a93f b8c4 d43f c9f6 89de 5bca c93f
00000450: f21a 55a1 ccf5 e13f 800b 5040 8fde f03f
00000460: 9738 599c 5de9 c1bf 2d67 1b16 55d2 e0bf
00000470: 0bda 8e45 2b33 d03f 0bc4 0d3a 636e d63f
00000480: 4f8c 6367 a9d6 debf ee04 794a 9e0b a7bf
00000490: 1f6b 231f 44e5 e93f 4497 1d24 3ed0 e3bf
000004a0: c8fc 01c3 4a31 edbf 3fbf cdc9 1523 d13f
000004b0: 2e6e cad5 eacf d53f 9ed3 e5d7 5044 dd3f
000004c0: 4239 9769 bf24 dfbf c7a2 e4b4 39a3 ebbf
000004d0: 1a9d 1fa4 00db c4bf 1d72 77ec 6a4a e13f
000004e0: 3e1e fdbf 197e d83f 3389 04ea 9730 8d3f
000004f0: ec5a 5fbf 1087 e9bf d0b8 fd45 786b d33f
-0.14097497044587334 -0.2855286468548046 0.2156961557705608 0.05840349271040886 -0.20468704467825838 -0.27067229623302275 -0.0020801044469432864 -0.19956097300937833
0.2733477425963301 0.5134103726218224 -0.39615217333940694 0.769965501740577 0.6389307533347066 -0.3404253115755497 -0.3323511217089904 -0.25606743511062036
-0.17267249859893496 0.7416069835213706 0.0463903085829792 -0.6412771463486203 -0.26369624415624027 -0.31571564728115503 -0.2593290788247716 -0.14198555985057015
-0.405711028431773 0.4221166407006131 -0.20784931605406698 -0.3029282913122903 -0.7563504411012236 0.008774540114779352 0.9469555888796534 -0.23180237560002367
0.3834854901215649 -0.31116107267036086 0.5713502370146077 0.43925150635632415 0.0039013957431556804 0.5567970688328263 -0.015087760987578344 -0.21174594530695245
-0.26334722448430203 0.12929903210564228 -0.012650155219107376 -0.1378809564727048 0.7633474102065456 -0.08435658159973694 -0.5809429865217681 0.13746672085238812
-1.0617897400507725 0.33607394896690895 -0.16637425130297664 -0.45154340756191946 0.1729854570064782 -0.5116628542273586 -0.2824608602765282 0.3281986289232181
-0.26261365989598084 -0.19743992721818687 -0.07897904101437386 -0.21506334138297195 -0.7791565912090722 -0.15204913738470904 -0.5977837302187285 -0.29059799992477425
-0.05687592712899586 0.6481192908354383 -0.17745826917141688 -0.8044752478145499 0.783839565998235 -0.16077694015488705 0.743980343201652 -1.3251357315728607
0.8507621185649483 0.2507386168875906 -0.475603437715832 0.1784485603584955 0.21199452547971467 -0.5992136083857889 0.22430498270961535 -0.37983191472815614
-0.04984163291048029 -0.12257686019775597 0.20047580001302653 0.1821346278648971 -0.5803434318169767 0.4162451166856192 -0.3368036057055873 0.7476859789371992
-0.8983612334788524 -0.5600442619776608 -0.6387632426356895 -0.15454236578194608 0.11223341168294579 0.6863960649150139 0.08606675394946289 -0.19198619145841514
-0.8767292367538072 0.712510890147241 -0.42761761898203093 0.28180514780811267 -0.2339367992482162 -0.4460037075920428 0.4741790822317272 -1.1589546491907514
0.3863508140661388 -0.8140867148400182 0.6394902471946482 0.20797257966567306 0.03980583057982727 -0.5421555416889341 -0.04629392562566376 0.1724192257635716
-0.1839468571486975 0.7775866907427202 -1.1140418416335494 0.3342344654471568 -1.3261257643752298 0.26696694695827616 0.5611470222384077 0.6090325008753807
-0.6224664526113739 0.7817661643307645 -0.4550597302447527 0.23282170654508544 0.005990804458511544 0.09251141178427652 0.7255980993588589 -1.069586711661017
-0.10059776642106778 -0.7137224375151653 0.35777418623924634 0.06565199568894658 -0.4851373060072504 -0.4490070482730728 1.0443029760159166 -0.8284117141641013
0.32450681893189154 0.20148800245435997 0.5612548018478647 1.0543358337606321 -0.1399342549725062 -0.5256753379610238 0.2531231097486006 0.35048752469362005
-0.48185191246574716 -0.04501051577654801 0.8092365844889605 -0.619170256174336 -0.9122670944924716 0.26776642520325206 0.3408152663994056 0.4572946651817861
-0.4866179019126272 -0.8636749775951892 -0.16293342603533106 0.540334188317107 0.3826965689554277 0.014252840832857138 -0.7977374780410549 0.3034344371325348
