params/large_50epochs_90percent/b1.npy (npy, 928 bytes, 1 tensors)

array f8 [100]
000000 8e dc df 97 97 ce b6 bf 2b 5d 21 06 b0 34 88 bf
       -0.08908984620926416 -0.011819243609507332
000010 08 a9 b1 e3 24 ce a0 bf b3 65 2d 5e ad 8c b4 bf
       -0.03282275466411205 -0.08027156399966522
000020 e5 f3 cc a4 a2 31 af bf f6 cd 3f 44 b6 11 d5 bf
       -0.06092556249357254 -0.3292060533997011
000030 4b 7c 09 dc 24 0f c3 bf 24 a0 cb 41 42 22 bb 3f
       -0.1488996576690361 0.10599149805386837
000040 80 24 d6 d4 45 38 cb bf ef 48 3b c2 b9 32 71 3f
       -0.212654808925695 0.0041987663459670385
000050 5b f1 2e 45 ed ed b7 bf bf 58 d7 65 85 6f a2 bf
       -0.0934742254166329 -0.03600708835772214
000060 98 3a ff 23 ae d1 b3 3f 2e b1 0b 56 e8 8d b6 bf
       0.07741821650345526 -0.08810283756946966
000070 7d bb 15 92 9a 08 c0 bf eb 06 60 b0 4c 14 b0 bf
       -0.12526256688166973 -0.06280974679978228
000080 e6 b3 da 39 ee 66 c1 bf 85 b2 ec e4 59 3d c0 bf
       -0.1359536917201744 -0.12687228849371848
000090 92 bb 0d 0a f0 3a e1 bf 5c ad 59 f6 84 53 d1 bf
       -0.5384445377693388 -0.27072261865278846
0000a0 06 19 bf 27 fd 90 8d 3f 99 27 33 1e 08 21 c8 bf
       0.014436700606790708 -0.18850804781532984
0000b0 9f a2 92 de ec 11 b1 bf ae 4f 67 29 a8 8d c1 bf
       -0.06667976793199636 -0.13713552495630438
0000c0 a6 31 d2 d2 40 b7 b0 bf 19 bb 8b 3d 4a 44 cc bf
       -0.06529622218130857 -0.22083404545943422
0000d0 09 51 7b 6b 56 06 c0 3f 2a 03 b4 6a 45 4b 9b 3f
       0.1251934075177206 0.02665432418598638
0000e0 c7 4e 41 89 b9 95 aa bf ec a7 db 5b 9b b8 b2 3f
       -0.05192355919339558 0.07312937729480468
0000f0 dd ab 75 ed 6a 80 8f bf e8 71 58 b8 ec 00 74 3f
       -0.015381656047528775 0.004883694351090352
000100 24 df 57 2f 5a 5c 96 3f 8e 19 72 36 77 57 aa bf
       0.021836671008684708 -0.05144856013889686
000110 46 9f d4 26 e0 2d a0 3f e2 db 53 6b 4d 5b a4 bf
       0.03160000299459269 -0.03975908217574166
000120 b7 0a ba 9c 42 ba c0 bf 93 2e cd 4a e3 f5 b3 bf
       -0.13068421032592933 -0.07797070099075602
000130 43 b9 42 62 ab e5 a7 3f 2d fe 01 17 e2 3b a9 bf
       0.0466741139838285 -0.049284997280662025
000140 82 ad 5c 32 dd cf b1 bf 0f 61 5a 57 d4 0a ca bf
       -0.06957800368825498 -0.20345548882756545
000150 bd 1b be 44 9b 87 b1 3f 2b e7 1d 29 73 51 b4 bf
       0.068475441248764 -0.07936782602146468
000160 89 fb c6 03 04 fc b0 bf 2e 86 ac 32 9c 45 7b 3f
       -0.06634545414179462 0.006658182285521215
000170 04 f8 18 2d aa 1b b1 3f 6f 2c ca 06 bb 64 be 3f
       0.06682838059438728 0.11872452655568265
000180 45 e6 b8 c4 83 8a b7 bf 81 46 c0 ac 9f 42 b7 3f
       -0.09195731690206184 0.09086034743838846
000190 de d8 ba 71 3c 7d c6 bf 48 24 e5 b2 40 ed b0 bf
       -0.17569690278259648 -0.06612018935733588
0001a0 f9 c5 37 ed bf 71 d9 bf d3 40 16 41 8f 9f bf bf
       -0.3975677315312108 -0.1235284360793714
0001b0 70 f3 ce 3d ca 32 a1 3f 73 3b b6 47 96 cf a1 bf
       0.03359062199112983 -0.034786888364684375
0001c0 33 a8 6c 3a 52 53 ba bf 0a 0e 2a 63 10 22 c3 bf
       -0.1028338806760594 -0.14947705118184756
0001d0 25 9f 51 9a 3b 0d b0 bf bd 68 df 0c c1 a2 a5 bf
       -0.06270191686200784 -0.0422573402608619
0001e0 aa 50 a8 5f 9e 44 b2 bf eb b7 ba 04 7b 36 a2 bf
       -0.07135953746211735 -0.035571903540912185
0001f0 c4 78 26 b8 48 0a b9 bf 5a 91 9f 82 d8 0c a5 3f
       -0.0978131723008771 0.041113630242565605
000200 51 83 7e df 62 bd ad bf 15 5b d0 22 2e 59 b1 bf
       -0.05808552721214844 -0.06776703214596254
000210 ec 10 31 30 04 e2 7f bf f6 4c c4 40 fc 98 b2 bf
       -0.007783905372950022 -0.07264687138767897
000220 35 c7 cc e2 da 05 c4 bf b8 c5 b5 3c be 7b a0 bf
       -0.1564286811276873 -0.03219408503617721
000230 92 bd 42 79 83 2d c9 bf 63 65 ab e1 22 3d b5 bf
       -0.1967014638989722 -0.08296411523351348
000240 9b 9f 13 03 6f 63 a4 3f ad a1 4b dd 7a 35 ca bf
       0.039821118474548466 -0.20475707822266767
000250 3c 91 c0 94 25 26 b6 bf ac 57 c9 31 3e 2d ab bf
       -0.08651957399030591 -0.05307955129380501
000260 06 f1 7c 9c ee 86 c0 bf 45 82 81 9a 75 32 b1 bf
       -0.12911780015009117 -0.06717619917027047
000270 22 c4 79 fc 45 1e a7 3f 89 b1 d4 61 bc 43 c1 bf
       0.04515284258821618 -0.13487963463684263
000280 3a e2 77 7d c5 ec b5 bf a7 a5 09 8d 61 fd 8c bf
       -0.0856440955466348 -0.014155161015156304
000290 b9 12 72 5a be 21 d0 bf 3c 49 e4 93 07 be a3 bf
       -0.25205954392030666 -0.03855918579405901
0002a0 82 d0 2c e8 8d 4c d0 bf e7 2e 66 80 f5 e4 ad bf
       -0.2546725051245248 -0.058387443469738724
0002b0 cb cf 45 1f eb 77 ae bf dc 83 53 b6 9c 69 b0 3f
       -0.05950865513560152 0.06411151362728112
0002c0 42 81 92 5a 4c b4 b7 3f 0c e6 ce f8 be a3 b8 3f
       0.0925948830722563 0.09624856542986765
0002d0 5a 35 ee 95 9c 6d 99 3f ef 20 67 3a 26 73 8d 3f
       0.024832197810203162 0.014379786164582657
0002e0 f3 b9 6a 04 5d b9 a7 bf 91 a6 37 b5 e2 ae 93 3f
       -0.046336085118458124 0.019221823034888678
0002f0 13 4c 4b 9f 80 a2 c1 3f bf c0 ed 9e 7a a1 c5 bf
       0.13777168062242193 -0.16899044761840362
000300 58 0f 91 3a 17 3e 99 3f 87 61 c9 2d 7d 4f 77 bf
       0.024650919866203352 -0.005691040973566769
000310 f4 31 28 8a 74 1a a7 bf cc 62 10 34 d8 b3 ba 3f
       -0.04512371241080251 0.10430670996755537
