params/large_50epochs_90percent/b2.npy (npy, 928 bytes, 1 tensors)

array f8 [100]
0.07547448629150438 -0.03266390031726911 -0.01851193751901675 0.16105599877149704 0.07380955072777394 -0.06385212509152195 -0.04583780613085911 -0.19417299585555778
-0.03150059740893002 -0.08406841449886537 -0.06413238189865426 -0.13479341746535373 0.20530155200396358 0.14930119305378256 -0.07051488320833088 -0.03623334161391047
0.007482217762983077 -0.030942439847999867 -0.21011297711852225 -0.07748648984001281 -0.1492260571568471 0.0031411449780091695 0.06782249285419276 0.23195074381389558
-0.01231751739036376 0.0952442927191066 -0.07580014672436983 -0.040220185549210564 0.0851421856576494 0.17297574189675896 0.12590142149010058 0.09248604023226033
0.07781125518376011 0.1278625756612508 0.10130268189908097 0.01045436930392448 0.0306286113595764 -0.1043883382110807 -0.09046284677353898 0.056049717191215646
-0.163906008091995 0.042112176372375854 -0.06870168240909053 0.045918730698488064 -0.059789428508037035 -0.043164196362795705 0.02618195929770837 0.024065962920017576
0.03437818682505253 -0.018979140579544668 -0.027817227524108774 0.036121869361162656 0.008399034777954117 0.03605136902615251 -0.08840553878906562 -0.029499247903905106
-0.017315582836001174 -0.08901673989569381 0.07972843934667426 -0.18132665219067243 -0.08347499930916062 -0.10262074930078734 -0.08037282353498164 0.0010556578668680606
-0.057180779939285574 0.048700345247592564 -0.07438126172740485 -0.10874115356655605 0.02331607855612272 -0.03252989301313709 -0.08303669643617609 0.07244479151697471
0.14026861151803363 0.0670520577131719 0.21451981252781083 -0.07294641178518264 0.055038663429913835 0.005302467892336879 0.03421798901504693 -0.20534901943947026
0.06082181128389802 -0.03347850774411474 0.03737308203958986 -0.03268988191340109 -0.0925560281594015 -0.08378674179142835 -0.0301791255854404 0.3808779732907581
0.11923139623562146 0.03343605751463948 -0.08606087086836695 -0.07442608813573345 -0.010680461683234607 0.01583151661768975 -0.10609544295243625 0.04502249349650091
-0.08277933301456197 0.15522679275912304 0.17499450715750184 -0.010080212742040637
00000000: eced 4dc2 4b52 b33f 06b5 3e9f 52b9 a0bf
00000010: 6f49 eb18 cbf4 92bf 492b c6a3 7b9d c43f
00000020: 271c 82c6 2ee5 b23f 0956 0ce5 9c58 b0bf
00000030: 443e 818c 0d78 a7bf b7a4 7b25 a9da c8bf
00000040: a804 5aa7 d820 a0bf e831 e6f2 8185 b5bf
00000050: 9b8a ded2 fa6a b0bf 1669 dd23 e940 c1bf
00000060: 9768 d63d 5247 ca3f 4dbb b52e 4d1c c33f
00000070: 90d3 426d 430d b2bf 6359 8332 2d8d a2bf
00000080: 7e3b 7f89 aca5 7e3f 8c8a d2fc 5faf 9fbf
00000090: 5339 9866 fbe4 cabf 17a4 be93 27d6 b3bf
000000a0: 478f 99e5 d619 c3bf 9a3d 7b5e 75bb 693f
000000b0: 8af0 bd9c d05c b13f cc55 7bdd 8fb0 cd3f
000000c0: eb4d e032 ed39 89bf 6ff5 5b12 ee61 b83f
000000d0: 4e92 366f a367 b3bf 9d54 257b bd97 a4bf
000000e0: 37d9 e8d6 e0cb b53f 5655 39b1 1124 c63f
000000f0: 46f2 e8ab 891d c03f 4554 2246 2aad b73f
00000100: ca63 463c 70eb b33f 8877 6c06 cd5d c03f
00000110: cfee c0f9 f8ee b93f ebd5 15b2 1969 853f
00000120: 01f2 7150 1b5d 9f3f 064c b3b2 31b9 babf
00000130: 8739 65b8 9228 b7bf 8f98 926c 8cb2 ac3f
00000140: 71bf 2f40 dffa c4bf 10c3 9028 ba8f a53f
00000150: a491 20f7 6e96 b1bf a067 3fed a882 a73f
00000160: 5056 2d50 b89c aebf 3500 7917 9e19 a6bf
00000170: 3a27 b78b 71cf 9a3f d5bd c06e bfa4 983f
00000180: 7c00 3888 049a a13f 689e 6190 446f 93bf
00000190: 25fe ec89 1e7c 9cbf 3c35 27cf 907e a23f
000001a0: 00a5 835d 8333 813f 16ff e235 5375 a23f
000001b0: 3e61 e2d1 bea1 b6bf 3bf6 0304 0d35 9ebf
000001c0: 769b f717 2dbb 91bf f006 a612 cdc9 b6bf
000001d0: 161a 8e3f 1569 b43f 5fab 8634 b635 c7bf
000001e0: 0304 1118 9e5e b5bf 2f4d 237a 5a45 babf
000001f0: 9fe6 9138 5093 b4bf ecc6 e400 c04b 513f
00000200: 1b17 9997 cc46 adbf 0cde 486c 40ef a83f
00000210: 7dee 8d7e a60a b3bf 3b34 4cd2 75d6 bbbf
00000220: e061 7a8b 2be0 973f ca81 4415 c2a7 a0bf
00000230: 7aae 8f97 e441 b5bf c9b8 54ea bd8b b23f
00000240: 4909 9065 52f4 c13f 9ff0 01db 522a b13f
00000250: ec53 939d 6275 cb3f 3558 fab4 9dac b2bf
00000260: 43e1 e416 072e ac3f 6388 f862 0ab8 753f
00000270: a34f 822f 0585 a13f 780c 616d e048 cabf
00000280: 3816 b254 0924 af3f 6d7c c24f 1824 a1bf
00000290: fcb5 388a 9022 a33f 55d1 746b babc a0bf
000002a0: 5c06 fe79 c0b1 b7bf 0b24 d543 0c73 b5bf
000002b0: 3237 a5d5 46e7 9ebf 803c c301 4e60 d83f
000002c0: 8c08 7de3 f285 be3f 9baa 10eb 871e a13f
000002d0: 5c4c d8d1 1508 b6bf ce1e 838e 960d b3bf
000002e0: 1edc 154d a3df 85bf 58ea 7918 2336 903f
000002f0: ba3f bc29 1229 bbbf 82be 4d32 300d a73f
00000300: 780d 15c0 0631 b5bf fe83 2eb7 78de c33f
00000310: 474d 9c52 3866 c63f c5a2 8240 efa4 84bf
