params/large_50epochs_90percent/b3.npy (npy, 928 bytes, 1 tensors)

array f8 [100]
0.10435263135649428 -0.0192091129173469 0.06598272065838165 -0.01102331722298152 0.06496909098276024 0.10330272439312625 0.04404700020419701 0.08141950051102269
0.10035693440181484 -0.09252401803809156 0.09186502188683832 0.07530234047641457 0.052613106146575495 0.15274094942530525 -0.000894594589576791 -0.030082018289760728
0.042699474281450565 -0.06048477996354202 0.12375606991565159 -0.03955817848875167 -0.07618534082329899 0.13563322092550584 -0.08022410989534617 0.05314517157560842
-0.10302773748049522 0.11995386838455918 0.07164458681379461 0.013206700163280264 -0.05323855275487867 0.05844650110676052 0.14411851068364637 -0.05634433219370816
0.01820202348466501 0.1140447102677168 0.13830072736242727 0.10921160645545981 0.15639593932496368 -0.12613149947121985 0.12158828137665735 0.182747245548552
0.04490487331443962 -0.05171337155700217 0.09332988286216598 0.13596355669685087 0.14225584527369808 0.044107035584737685 0.08901014981210337 0.17997128018023084
0.09464499078705463 0.04730472164500966 -0.03551009098061102 0.040662948520064496 0.1145319402681836 0.060915146716397514 0.05276310655394281 -0.026370763692935076
0.04187123911072644 0.18141784941019193 0.13537386609979396 0.12315899940560755 -0.0701725691941578 -0.059341739212453885 -0.018716348257447377 0.10542742439862926
-0.08362986288147806 0.12138472833388557 0.21529582576366502 -0.08282135017931781 0.16413870362017186 0.04717727203954013 0.09550585305825965 0.15361515505411077
0.08788822227671704 0.24123638239856596 -0.13760475146026407 0.10261237801609295 0.1699908427948781 -0.0061022966968985685 0.05097584705917387 0.05067495789300868
-0.006596742916324547 -0.036965082752558776 -0.07419665546538093 0.04134410773298959 0.009745654552880968 -0.1103860966645254 0.1316326633877929 0.24305599746732223
-0.09906778744047921 0.050874369850315924 -0.043656081639016124 0.07679506660750421 0.2040414946766965 0.018556838637781556 -0.018018117879711023 -0.06173910087774301
0.14587111229455207 0.13540941485071803 0.048753243147668324 0.03377763309864089
00000000: e67c eda2 dab6 ba3f 528a 0fbf 8dab 93bf
00000010: b22f 545b 3ee4 b03f 2ca7 ba97 6493 86bf
00000020: ee94 0579 d0a1 b03f 872e db1e 0c72 ba3f
00000030: 3a55 ba12 548d a63f 5b95 f38b e8d7 b43f
00000040: aabf 2ef7 fdb0 b93f 2370 916f a7af b7bf
00000050: b879 a650 7784 b73f ae90 a8a1 0347 b33f
00000060: 3825 7be4 1af0 aa3f a455 45f3 038d c33f
00000070: 954d b140 6750 4dbf b73f 0213 d2cd 9ebf
00000080: 1bc1 309b b4dc a53f 49c6 b26f dcf7 aebf
00000090: 591e f850 7aae bf3f b30a cc35 f840 a4bf
000000a0: 794b 45eb e180 b3bf 0227 10ec 6d5c c13f
000000b0: ace9 5938 9189 b4bf 6510 b70b d835 ab3f
000000c0: f941 0f9b 0660 babf e488 bdf5 4bb5 be3f
000000d0: 69f9 4cb5 4c57 b23f 6f9f 504a 1d0c 8b3f
000000e0: 02e9 ef65 1542 abbf 7f69 a325 b3ec ad3f
000000f0: e536 11b1 7972 c23f f082 2c10 2ad9 acbf
00000100: 97c3 591e 8da3 923f 19b3 e1bc 0832 bd3f
00000110: 006f 8496 d6b3 c13f e1df 11b6 4af5 bb3f
00000120: a95f 503a c804 c43f ddb6 9cb4 1325 c0bf
00000130: 51ef 16dc 6820 bf3f 9b55 8801 4364 c73f
00000140: b311 a284 c5fd a63f 5fd9 34cf 2c7a aabf
00000150: 6cec a19a 77e4 b73f 07fc bafa 4067 c13f
00000160: 6dc4 8e85 7035 c23f 3b4c b886 3295 a63f
00000170: cc7d 7482 5ec9 b63f b6f2 4b85 4c09 c73f
00000180: 741e 2974 a73a b83f 51ca d210 5338 a83f
00000190: 8621 e1ee 602e a2bf 84ef 1a24 c6d1 a43f
000001a0: 399d cc19 f751 bd3f 5eb8 f425 4530 af3f
000001b0: d449 2b12 c403 ab3f 74dc 86fe ef00 9bbf
000001c0: 1144 3fa5 2570 a53f 894f 1039 b338 c73f
000001d0: 7cdb d04b ee53 c13f 15b9 a722 5987 bf3f
000001e0: 77e4 c359 d4f6 b1bf 8f16 695a 0a62 aebf
000001f0: 1c46 aade 602a 93bf 9ec4 e4ab 4afd ba3f
00000200: 647f 0b46 c468 b5bf bf89 6dce 1113 bf3f
00000210: 8864 4f49 d08e cb3f 9144 6eae c733 b5bf
00000220: 923a 073e 7f02 c53f ae73 0c91 9e27 a83f
00000230: f838 7653 1273 b83f d24d 9051 a9a9 c33f
00000240: e3cf 61b0 d77f b63f a1eb 8072 d5e0 ce3f
00000250: b8e4 a551 089d c1bf cb70 be07 ce44 ba3f
00000260: 8d34 368b 42c2 c53f 9a10 e6cb b8fe 78bf
00000270: db95 0298 8119 aa3f 2fd8 c06d 11f2 a93f
00000280: 302a 5fb1 2f05 7bbf e847 085b 16ed a2bf
00000290: aa46 b250 8dfe b2bf 32e4 300d 0e2b a53f
000002a0: 2772 a99c 87f5 833f 8273 1b63 4342 bcbf
000002b0: 5000 2bd0 56d9 c03f e501 1c7c 751c cf3f
000002c0: 1bd9 24ab 815c b9bf f365 6c95 340c aa3f
000002d0: 1f79 d205 175a a6bf 86c8 926b d7a8 b33f
000002e0: 4be9 541d 081e ca3f dc03 445c 9000 933f
000002f0: 0f86 1d6c 5773 92bf 1c07 4f76 449c afbf
00000300: 443d 5e94 e7ab c23f b55a 2d80 1855 c13f
00000310: c84d c961 2ff6 a83f 0e6a fd4a 4d4b a13f
