params/large_50epochs_90percent/b4.npy (npy, 928 bytes, 1 tensors)

array f8 [100]
0	0x3fc0bba36ce301b0	0.1307262689279134
1	0xbfb7ffa4091982fe	-0.0937445184913592
2	0x3fa680d7519d642c	0.0439517295005277
3	0xbfb2602294802952	-0.07177940488341975
4	0xbfa4443b227b1a38	-0.039583061179247314
5	0x3fc37487b61ea999	0.1519937171227184
6	0xbf8ef8f0747289ce	-0.015123251489346592
7	0x3fc8f033ef850ebe	0.1948304099588451
8	0x3fbf7e1d890951f4	0.12301811786284828
9	0xbfa42cfcf371067e	-0.039405731884937886
10	0xbfd53f374ab1fb60	-0.3319833974309656
11	0x3fcc31c7f764c6ef	0.22026919917839602
12	0xbfaf3cc8e3fb596b	-0.06101062567693102
13	0x3fccf8407864ecbb	0.22632604483246674
14	0x3fc72066c60c94ed	0.18067631407135512
15	0x3fd685aa79211638	0.35190831975009784
16	0x3fb89e66bd888ede	0.09616701247483259
17	0x3fba28d0402ede4b	0.10218526427240097
18	0x3fb026a1a8459a67	0.06308946951103565
19	0xbfc0293e7e15e95d	-0.12625867039225627
20	0x3fc815d0e58f4131	0.18816577156986505
21	0xbf8ecf52c49c3e5d	-0.015043875336714746
22	0x3fb3d1d7d1b2b104	0.07742070073681268
23	0x3fcef85cd25a1ba6	0.2419544245824145
24	0xbf68667b740bf47d	-0.00297855483984094
25	0x3fc3ffa4f8fc6bbd	0.15623914868851144
26	0xbfb77289bce5014b	-0.09159146176989912
27	0xbfab3f3e3ebc8d3d	-0.05321688190295013
28	0x3fce73b7d6892bb8	0.23790643668539047
29	0x3fbaa699314ebd21	0.10410458997533968
30	0x3fa673a2f3f58d00	0.04385098674790733
31	0x3fa3068721e99710	0.03715917862863993
32	0x3fc93bd85d8babda	0.1971388298764783
33	0x3fca6f827045f37a	0.20652800066082105
34	0x3fcdde82cd00c387	0.2333529950133448
35	0x3fb2233fd780a200	0.0708503628853876
36	0x3fd115050133c6f8	0.2669079314938325
37	0x3fb89d92f77b60cb	0.09615438978233042
38	0x3f9cc2d6a5b24056	0.02808699976282044
39	0xbfba789d7c4c2e8c	-0.10340294155701651
40	0xbfa4e95f08fd8302	-0.04084298119301445
41	0x3fc5322b0dc95e07	0.1655935113255824
42	0x3fcf9992aef0e2a2	0.24687417547263119
43	0x3fb39a433e1e70b8	0.07657261149001016
44	0x3fc77db12874b1cd	0.1835233161485931
45	0x3fa2c530264ba2f6	0.03666067569230862
46	0x3fc44139897443ec	0.15824050151471114
47	0xbfc6e2b02d711560	-0.17879297465166655
48	0x3fce7ccfd4f7667a	0.23818395518064844
49	0x3fc5660343f98c3d	0.16717568224984972
50	0x3fa7d4253f3c7b9b	0.04654041668822303
51	0x3fcb1aeb4aeb2aae	0.21175900610099546
52	0x3f9d6d8ae51ce49d	0.028738184198321737
53	0x3fa4fe43057cc5a6	0.04100236360535385
54	0x3f874ff004285e47	0.011382937552340112
55	0x3fc307b01ff49389	0.14867211876221756
56	0x3fd47d7902bce24a	0.3201582457291222
57	0x3fc3b48487cad08b	0.15394646292191214
58	0xbf942f0d845d58bc	-0.0197107421912157
59	0x3fcf0dd94233ac8a	0.2426101277590969
60	0x3fd538b664abd83d	0.33158645468882125
61	0x3fdbb9917d32074d	0.43320119119754424
62	0x3fc557cfdec82cdd	0.16674230936073445
63	0x3fc6c76b4cb1369f	0.177960789153464
64	0x3fc8fd243e246d31	0.1952252677373081
65	0xbfbc23ca86d6178f	-0.10992112914945394
66	0x3fcb0638d13cb65b	0.21112737862260897
67	0x3fe13cdce7967739	0.5386795542906163
68	0xbfb046b4edc91d6b	-0.06357889943421006
69	0xbfaf047690763a4b	-0.06058092606973683
70	0x3fb2735c66c0872d	0.07207276829333571
71	0x3fd769af894607a7	0.36582554250355276
72	0x3fce90545d139739	0.23877958817245729
73	0x3fd3b1ee2aa46773	0.30773500599172293
74	0x3fc381c2bbbfcf70	0.1523974816078595
75	0x3fb76697ca6ed8e3	0.09140919391834106
76	0x3fdcfc0ab98d9cb6	0.4528834163706493
77	0x3fad86d8dee04103	0.05766942711500358
78	0x3fd1b0e841c7420a	0.27642256187121517
79	0x3fc162fbea3d5e07	0.13583325326429493
80	0x3fd14d886de0bd07	0.27035723428976194
81	0x3fbdbf41ff99bc91	0.11619961252448464
82	0x3fb1c21868bc967b	0.06936790997550617
83	0xbfb191a05aa0221e	-0.06862833225762485
84	0x3fb810b4a24f6ff8	0.09400490725187172
85	0x3fc1e0e9459b4925	0.13967624567755724
86	0x3fdbde041cd49b64	0.43542578521230824
87	0x3fba97b842cca6f6	0.10387755995602874
88	0x3fa00d9b435da921	0.03135380933129484
89	0x3fc879c9472650ac	0.1912166211519709
90	0x3fceb23eb6bf98d6	0.23981460498106938
91	0x3fcb24790394e0ec	0.2120505588043281
92	0x3fe0d4dbbab01ec4	0.5259836813210872
93	0x3fbe8267df2cb98b	0.11917733381844735
94	0x3fcf5bc0dd7ca1d2	0.24498759093081773
95	0x3fb2a897bcf9cb90	0.07288502086320947
96	0x3fd0bfa15b7ae0b9	0.26169618543236656
97	0x3fb9cfaf6ea4c11d	0.1008252759099872
98	0x3fc6327bb87977dc	0.17341562755149098
99	0x3fc9254d3421cc5a	0.196450853781786
