params/large_50epochs_90percent/W1.npy (npy, 627328 bytes, 1 tensors)

array f8 [784, 100]
0	0xbf8c154d68ea621a	-0.013712506069439679
1	0xbf78208f2c8ac0a7	-0.005890425942809119
2	0x3f6e743f66c8b4cd	0.0037175405798480555
3	0xbf8733454b986cc7	-0.011328259820450616
4	0xbfac2edff7c612b4	-0.055045126910987646
5	0xbfa578e66e4bac92	-0.04193801971799717
6	0xbfa3f4ae1abc7665	-0.03897613598222164
7	0xbfa3b10396ebc3ec	-0.03845988480851034
8	0xbfa4dde663d5f843	-0.04075546234797447
9	0xbfa61a1c33c7660b	-0.043167954750696756
10	0xbf8eec3377e7a6c0	-0.015098955246645729
11	0xbfa50a9c282fe674	-0.041096572786000346
12	0xbf8357e96d2f6cba	-0.009445022244042856
13	0x3fa60855cb244037	0.04303234200244826
14	0x3fa3372777660f9a	0.03753016788962711
15	0x3f93789778237124	0.01901470824019315
16	0xbfa8997c9ae0e6bd	-0.048046010881490166
17	0x3fa78b58563b4e67	0.04598499348290091
18	0xbf75ee2c9e7c27c0	-0.005354093831337836
19	0xbf9c0e5ce70da297	-0.02739854011761852
20	0xbf8833ba7aa1c494	-0.01181741415732266
21	0xbfaf9b5f798ad522	-0.061732276522358256
22	0xbfb08b2066049e38	-0.06462290278124605
23	0x3f9e102d9b15c050	0.02935858973563682
24	0xbfb033ba35dad0a8	-0.06328929724515098
25	0x3fac09575f8f0b37	0.054758768477333346
26	0x3fabaa852686269d	0.05403534026397703
27	0xbf8c43f85a387ac0	-0.01380151772815219
28	0x3f99cbca17d47bc4	0.02519145746657238
29	0xbfa827e195eb08bf	-0.0471792693620201
30	0x3fad93344f731010	0.05776370496599281
31	0x3fabbef9c5e0e8b7	0.05419140377530723
32	0x3fb0dc9eb90b78b8	0.06586639421172691
33	0x3f76e96519e26fc0	0.005593676496712108
34	0x3fae1ce93aba83cd	0.05881432382489713
35	0xbfaa7971d997bac0	-0.05170779973183448
36	0x3faff9c426776a77	0.06245243997155552
37	0x3f9880cd3da806cd	0.023928839576916872
38	0xbfa03c49a742ad4b	-0.0317099587130892
39	0xbf9b8d1d720fd192	-0.02690549858739783
40	0x3fa5bd70663bf80d	0.04246093032814722
41	0x3f87ca526a40b094	0.011616367213797475
42	0x3fa716f961973cda	0.0450971538190232
43	0x3f9854471c41a16d	0.023758994197494433
44	0x3f8746c83f295d2d	0.011365475108660117
45	0xbfa5b1725c3dc262	-0.04236943603507794
46	0xbfad8028671e55f7	-0.05761839159746878
47	0xbf8f1e2387f1335a	-0.015194203935743712
48	0xbf98ced9c20970c8	-0.024226572483130565
49	0xbf88b1f77c8062c7	-0.01205819462488601
50	0xbf953a5650c02685	-0.020730351141571752
51	0x3fa8f923ee43bb4d	0.0487757900572122
52	0x3f150752e5474334	8.021777586654234e-05
53	0xbf6e02be926f5400	-0.0036634180173487074
54	0x3f9a9557d87bcff7	0.02596032389460842
55	0x3fa0f88e9d0dff85	0.03314634005710019
56	0x3faea322704c3560	0.05983836766072659
57	0x3f64ec851f19229a	0.0025541877774098555
58	0x3fa9cc9d312dbdd0	0.05038920617414144
59	0xbfa880233d34d3c4	-0.047852612706641234
60	0x3f9190b1107a3a2a	0.017153517370895134
61	0xbf88b27405be0240	-0.012059122491110519
62	0x3f83453ca6135dad	0.009409402673937384
63	0xbfae15244702d4d7	-0.05875504843553763
64	0x3fa3b79a52b0fab7	0.03851015338340374
65	0xbf9a81171488f935	-0.025883064869270462
66	0xbf707e3015d25240	-0.004026592095347115
67	0xbf9dc23da9ead5d2	-0.02906128263085412
68	0xbf79b03b1efd728d	-0.0062715825477793865
69	0xbfa875c588db035a	-0.04777352614974602
70	0x3fadf91ee404b31d	0.058541264852783416
71	0x3fa9cca55d5a2440	0.050389449735185554
72	0xbf909c52f692129f	-0.016221329020953076
73	0x3fb058f1fe539b1d	0.06385719737191349
74	0x3f79daf95384d59a	0.006312345438620604
75	0xbfb0be23f828fb94	-0.06540131386371534
76	0x3fabf1c959931f8d	0.054579059776698725
77	0x3fa973af581df217	0.04971073103567763
78	0x3fa3e739df173070	0.03887348984025685
79	0x3f6dfbac3281a51a	0.0036600459316572633
80	0x3f9da837fbaad2f7	0.02896201585345445
81	0x3f92f36a652246ba	0.018506681845400698
82	0x3fb0aaedc9e36123	0.06510816744719654
83	0xbf9983c694752e6a	-0.024916746913091016
84	0xbfa50ff29d272389	-0.04113729637499037
85	0xbf840a1df047198d	-0.009784921546167858
86	0xbf8f93b2f8bf706d	-0.015418432441883756
87	0xbfa009f8e6cac5d3	-0.03132608239446779
88	0xbfa0c4fdd34c9ac9	-0.032752925914157745
89	0xbfad7c9fcd419272	-0.057591432386094335
90	0xbfa1b7b67ac48cdf	-0.03460474251394329
91	0x3f76de82070c4c40	0.005583293838543446
92	0x3fa5a618c7f082d0	0.04228284302394558
93	0x3fb05bd695fc5be8	0.06390134011995452
94	0x3fa1ff9cdd76f89d	0.03515329554964917
95	0x3fa9a08fe81deb2a	0.05005311687906151
96	0x3f3658e3ddabcb34	0.00034099162228000694
97	0xbf9174ac32195ec0	-0.017046633298689384
98	0x3f78ac18f69905a7	0.006023499977858482
99	0xbfa4b44a3c5c3244	-0.040438003414327045
100	0x3f930732e9f19c33	0.01858214905623985
101	0x3f661b4063ae3ecd	0.0026985414128331887
102	0x3f9ab3a48d727a30	0.026075907834291978
103	0x3fb08f3d2609c2ca	0.06468565157571074
104	0xbfacd258389540d7	-0.056292302043063173
105	0x3fa4c9c02d8576e4	0.04060173564606176
106	0xbfb0366fc08904d0	-0.06333063555304652
107	0x3f9034b5ca22d86a	0.01582607313385901
108	0x3fa393db5d06e2cd	0.03823743353445295
109	0xbfa0b21840c73d0b	-0.03260875502348356
110	0x3fa40a5453e99280	0.03914130710908115
111	0x3fa8e1b69f15bdf7	0.04859705631212912
112	0xbfa7cb2a77833ef7	-0.04647190770049108
113	0x3fad17a7bf547430	0.05682110033578913
114	0xbfa9960dda3fd13c	-0.049972947017439456
115	0xbfb031119fdb7e48	-0.063248731162724
116	0x3f81c86093666b3a	0.008682970522206557
117	0x3fa6df47f48b87a7	0.04467224941414765
118	0x3f8371ce07bde060	0.009494409190424047
119	0x3f90f9670102167d	0.016576394497425973
120	0xbf9b364ed3f68185	-0.026574355780782283
121	0xbfaf6131ccc2be80	-0.06128841042061328
122	0x3facf1df14d4c7c7	0.05653283242499146
123	0x3fad2c22065cf27a	0.056977332379095594
124	0x3faa4b7fc742cfaa	0.05135726268181824
125	0x3fb03ba00ac5820b	0.06340980780579046
126	0xbfa0cb82a1f23859	-0.03280266024476992
127	0x3f8d3125985d4fa0	0.014253896438880365
128	0xbfaeb8e7060cfd97	-0.06000444363462092
129	0x3f88f56a2bb20f27	0.012186841448290032
130	0xbf9ebd4096b16e7a	-0.03001881522901193
131	0x3fa2bc272c408ff7	0.036591743614081844
132	0x3f857067e27bbf7a	0.01046830329821068
133	0xbfa58ab7fbb5ad76	-0.042073964573172626
134	0x3f9e9af907658bdd	0.02988804919858611
135	0xbfa9d6be0ca9909f	-0.050466479345034225
136	0x3f8a62203b39a007	0.01288247280827194
137	0x3f84cebd0040bd8d	0.010159946985452329
138	0x3f6a1dc8e575871a	0.0031880306011523698
139	0xbfae77f654f35090	-0.05950898921005987
140	0xbf8c32f898f76900	-0.01376909462753817
141	0x3f523714c3ac59cd	0.0011117651726571976
142	0x3fa6a9b312b5f577	0.044263454469709744
143	0xbfa8fef44569a350	-0.04882014605829588
144	0xbf8ce22c49256634	-0.014103265745393313
145	0x3f7311426de1d600	0.004655131806534651
146	0x3fac104535eedded	0.0548116329513809
147	0xbfa02590d0f56f77	-0.03153660345807812
148	0xbf9952f13a9cae98	-0.024730462267298664
149	0xbf5bb260730146cd	-0.0016904775511829451
150	0x3f8997b72fd1d954	0.012496405741541018
151	0x3fad5fca6b5b7f8a	0.057371450047639064
152	0xbfa4f70c709402d5	-0.040947331182911086
153	0x3fa1b4b84f741887	0.03458190889254902
154	0x3fa6add65645d56d	0.04429502299437158
155	0x3fa75dacac981d50	0.045636554783465955
156	0xbfa2aaa30bf09953	-0.03645810623884196
157	0x3fa813292a5e4ffd	0.0470211853236435
158	0x3f6ceb8c2574c867	0.003530286525028226
159	0xbf73c67e9446d380	-0.004827970933935499
160	0x3f822545a7ab785a	0.008860153369308833
161	0xbfa76cea4f868f98	-0.045752832610815364
162	0xbfa2e93a4eabd838	-0.03693563661902072
163	0xbfae5a37cce88b24	-0.059282058490018025
164	0xbf772ada417db69a	-0.00565610176259459
165	0xbfa22dffd9f29e64	-0.035507197718570166
166	0xbfae6ac4e09ce07a	-0.059408333223871915
167	0x3f60195ee4eecb33	0.0019652226833043684
168	0x3f5d582fafad6e34	0.001791044777482831
169	0x3fa0b3f45f1caa52	0.0326229444602474
170	0xbfa9e1e67bdee7e4	-0.05055160772413084
171	0xbf0212f1ccfd1333	-3.447342316901247e-05
172	0xbf86444d4342029a	-0.01087246285919834
173	0xbfa2b570646e8e34	-0.03654051996207067
174	0x3fa096f45d05a143	0.03240169177553522
175	0x3fa5aeb39bb83704	0.04234849239229102
176	0x3fad74ae12ffa8e4	0.057530822581456836
177	0x3f9d6bd37fd62cfd	0.028731636693504637
178	0xbfa54c7c12ae27b7	-0.041599156647023454
179	0xbf90c14873d48e57	-0.01636231619808223
180	0x3fa952ca8acfc6ad	0.04945977158048485
181	0xbf733924ce8822b4	-0.0046931684269188485
182	0xbf6d360ca5bbd934	-0.00356581182665674
183	0xbf9eb7d6cdec9b04	-0.029998165434473215
184	0x3fa7bcdc7fbc32c4	0.046362772553128845
185	0x3fa9bbbdec724cd7	0.05026048194226867
186	0xbfa991d698c732a5	-0.04994078268973582
187	0xbf9b9943359d5a54	-0.026951837680224536
188	0x3fa2ab35f097889a	0.03646248399651704
189	0x3f9d031bf7c534e0	0.02833217334528093
190	0x3fa70976d92e1387	0.0449940815079009
191	0x3f983f8fe6ed514a	0.023679970235506866
192	0x3f5f4011a45d0967	0.0019073650632469242
193	0xbfb0b9efd4c7b167	-0.06533717102837998
194	0x3fa1e83525b01840	0.034974728441782066
195	0xbf8524b448e32367	-0.010323914026587123
196	0xbfa03994b34160af	-0.03168930710006756
197	0xbfb06987dc18f6f3	-0.064110270724054
198	0xbfa3477197b682cb	-0.03765444733585851
199	0x3fa12eed2058cd17	0.03356114406451576
200	0xbfa603f2f478e2c1	-0.042998878805922576
201	0xbfad003b2361093d	-0.05664238745568404
202	0x3fb06568eeef3dd0	0.06404739220965117
203	0xbfa3f3949eb5f27e	-0.038967747091168
204	0x3f8dd4ac89d91f80	0.014565799671927726
205	0xbf6ac68a9454f6cd	-0.0032685000066113635
206	0xbf66515d58b7d74d	-0.0027243445563226777
207	0x3f9739e1b0070b50	0.022681738251559225
208	0xbf6b4a1c6f427a9a	-0.0033312373507919492
209	0xbf8bc28fedb8ca6d	-0.013554691736407077
210	0xbf94f2612f3e6faf	-0.02045585490087348
211	0xbf7ba9638fe930cd	-0.006753338732391434
212	0xbf9de09ed1b8fbfd	-0.029177171278430326
213	0xbfafaa3a32750ea2	-0.06184560647900851
214	0x3f9e6ed191ed89aa	0.029719614536028928
215	0xbfae9f5612d6b4c7	-0.05980938892330694
216	0xbf8dda3b005b9294	-0.01457639784661894
217	0xbf9fef4c8b20ae68	-0.031186290733030836
218	0x3fa6104150df8924	0.043092766878333216
219	0x3fa8f18a85820017	0.04871781234487587
220	0x3f95dae7084cc3b4	0.021342859155257535
221	0x3fa9295c065bab7d	0.04914367272961948
222	0xbfa00ccc6e810427	-0.031347645272497275
223	0x3fa3e7f86b285437	0.038879168587449824
224	0x3fa9120e5625f227	0.048965881363049406
225	0x3f70cb2c5ad7dbda	0.0041000111209461235
226	0x3f9b9e21d490477a	0.026970413779117554
227	0xbf95cf0c3cadfcd0	-0.021297637179938544
228	0xbf9090dbf396c2a0	-0.016177593939291968
229	0x3fa02bdc6d4bea7f	0.03158463319956172
230	0x3f9175fdf5320c0d	0.01705166634611648
231	0xbf7c81ebdeaa9ff4	-0.006959840170260623
232	0x3fb0da03dbdfb03b	0.0658266460229137
233	0xbf9c522172c27f3c	-0.02765705359399749
234	0xbf99640f33661cd4	-0.024795758735788834
235	0x3f9814adb10e602a	0.02351638215222366
236	0xbf97443a9fb1b430	-0.022721210476835008
237	0xbf8c336fdfd63e74	-0.013769983309230606
238	0x3f999b23ba05f3c0	0.02500587294479195
239	0x3fa122e107576c58	0.03346923079126246
240	0xbfb0dd26b604c335	-0.0658744997388226
241	0xbfab1a01105566e2	-0.05293277096161632
242	0xbf7ea28a3bb6f574	-0.0074792289482820025
243	0xbfa6a3ffc3c2ff00	-0.044219963690464326
244	0x3fa5e6cae0da8330	0.04277643198770986
245	0xbf95edd9e8ac3422	-0.021415142847264097
246	0x3f60365cd873becd	0.0019790471447932224
247	0xbf84f99cda4b8927	-0.010241723453365893
248	0x3f9b684bdb702ab7	0.02676504637569607
249	0x3f608bdf8532aab3	0.0020198217040009125
250	0xbf88d46771c8d88d	-0.01212387863152411
251	0xbf85d762dd0a9e1a	-0.010664722796106797
252	0xbf90b2e69751d080	-0.016307452188315086
253	0x3f811e646c6364e0	0.008358749921557551
254	0x3f7326101454a933	0.004674971399518934
255	0x3fad175e24fe09f7	0.05681890679899831
