params/large_50epochs_90percent/W2.npy (npy, 80128 bytes, 1 tensors)

array f8 [100, 100]
0	0xbfadba1301216e95	-0.058060258758556284
1	0xbf81044148d8cbc4	-0.00830889705239269
2	0xbfb0074c34cea2c7	-0.06261135377156811
3	0xbfb394f4b6bc90d9	-0.07649163686125195
4	0xbfb8b5b4843b4978	-0.09652260044393823
5	0xbfb495354d4987b2	-0.08040173661132036
6	0xbfa5a40ae60eaf20	-0.042267170508550445
7	0x3f9e754e02f4a43e	0.02974435704269162
8	0x3f989741f6e39e08	0.024014502233425744
9	0xbfbe6ffd815369f8	-0.11889633567208324
10	0x3fbd59f351e71e65	0.11465378522472632
11	0xbfb9fc7c4f44203c	-0.10150887427528316
12	0x3fbd0e237fb83631	0.11349698894647343
13	0xbfa543cc8fee1bb2	-0.04153289086303093
14	0x3fd215640602f6e7	0.28255558573788025
15	0x3f98f2e93231b653	0.02436413163052571
16	0xbfb504412fdbfa91	-0.08209617060127018
17	0xbfb002e50697276b	-0.06254416857623617
18	0xbfa52006acf9f05a	-0.04125996457602872
19	0x3fe7670c55c1e061	0.7313291239688732
20	0x3fbb1b8c2ab408a9	0.1058890918975829
21	0xbf989334d4451fa3	-0.02399904771416995
22	0x3f8fb0aa4b56d890	0.015473680900737002
23	0x3f668830e42063ba	0.0027504877953216907
24	0x3fc0f88f8cf7a4f4	0.13258547194644843
25	0xbf9d0f1dd4f41f7b	-0.028377977488190247
26	0x3fb93b2829efd3b1	0.09855891250465622
27	0xbfd03a6a40408154	-0.25356537127119805
28	0xbfa6744577359763	-0.043855830003663575
29	0x3f95199c662c8cb8	0.020605510460097703
30	0xbf5d316138e771ea	-0.0017817925869315584
31	0xbfb86ad0494fefe7	-0.09537984647607765
32	0xbfb4a470118cfec9	-0.08063412121282022
33	0x3faf2cbdfcf1f423	0.06088823044499516
34	0x3fa43c465b641135	0.039522360473741726
35	0xbfbf13ca0ce08e85	-0.121395710128633
36	0xbfb1da9f2ab10143	-0.06974215309401637
37	0x3fee79fd2f26e3a7	0.9523912354408041
38	0x3fb3990d737ed215	0.0765541464778113
39	0xbfb7e050d582b215	-0.09326653683337612
40	0x3fb32d4106b557ce	0.07490927137163725
41	0xbfd32541185c7671	-0.2991488206770106
42	0xbfa6824971d4d242	-0.0439627601103081
43	0x3fd1907319063ca1	0.2744415039423505
44	0xbfa5a45282be1da1	-0.04226930471400726
45	0x3fb285a8ec3f2383	0.072351987531091
46	0xbfc555c794508f1d	-0.16668028585365216
47	0xbf5ea154b0515aa9	-0.0018695189512720012
48	0xbfb2532c199c7dbb	-0.07158160805965157
49	0x3f889a0326d4e7bc	0.012012505171344993
50	0xbf841fee86f00e9d	-0.009826529973003867
51	0xbfc131ff7f0dc787	-0.13433831886100853
52	0x3fc7c75cb9516d19	0.18577155159696515
53	0x3f97e35351e8653b	0.023328115343337102
54	0xbfa1724aeb05e1c7	-0.03407510870869462
55	0x3fbb3699f40269fb	0.1063019009328982
56	0xbfbe35bba3c2eaca	-0.11800740001755652
57	0xbfb99226a7a8f428	-0.09988633721600648
58	0x3fb70fcd9a50a55c	0.09008488671738263
59	0x3fae7390002ecd5b	0.05947542192680074
60	0xbfa2e8fc5719b86b	-0.036933789856320974
61	0x3fb8c029d826e297	0.09668218161722063
62	0x3fb478b19597f4f6	0.07996663953959512
63	0x3fe49f2981fd50b0	0.6444289721353211
64	0xbfb5beeedaf10c7a	-0.08494465680364441
65	0xbfb6bb3c7cbce6a5	-0.08879449887617825
66	0x3f89c358e0203d55	0.012579626407414205
67	0xbfb54a892b2cdc6b	-0.08316857627947775
68	0x3fde22275952cecb	0.47083457682604707
69	0x3fba8c71458cc6f8	0.10370548198696017
70	0xbfd99f3c21d00e67	-0.4003439264490453
71	0xbfb275d1fac53b7b	-0.07211029407811324
72	0x3fb87ae11d9445ed	0.09562499019764177
73	0xbf780fa8fd6a91ec	-0.005874309651208592
74	0xbfaf0dc1a2d27c8d	-0.0606518279321274
75	0x3fa32570554813f2	0.037395010385843266
76	0x3fae3d7bc94e9d31	0.059062832187289145
77	0x3fb02b71f7c7a920	0.0631629209453064
78	0x3fb5b8ea77c87244	0.08485284256352893
79	0x3fb8eedf9ef2e3e2	0.09739492064080893
80	0x3fb56aadac7c1866	0.08365903340390587
81	0xbfc015fe56cc2e28	-0.1256711887184434
82	0xbfa9ab5653de16e9	-0.05013532422803541
83	0x3fb1ae3a5e88a65a	0.06906475837663476
84	0xbfa877ee8e321dd7	-0.047790007455713095
85	0x3f9e89ec19b6629f	0.029823006696093498
86	0x3fbacba0690f4df4	0.10466959538398851
87	0xbfb0b8118caa784b	-0.06530866321779276
88	0xbfa587adf9a791fe	-0.0420507781271091
89	0xbfaed85daf783905	-0.060244491262084345
90	0xbfb799d8d606ff30	-0.0921912691619553
91	0x3fb2035ed2eb4d6c	0.07036392831223787
92	0x3fa83c938257503f	0.047337159786963394
93	0xbf8805857cdfae45	-0.011729281304687986
94	0xbfb4c0db5ef3e9ba	-0.08106776302512389
95	0xbfc1e77bcbf63680	-0.1398768182665897
96	0xbfb5d3956406d4b9	-0.08525975887353611
97	0xbf8c52af92d57dc2	-0.013829585712925477
98	0x3faf998a58350642	0.0617182953524318
99	0x3fbf90b4dab7d3be	0.12330179538532968
100	0xbfaa9f1cf6dfc35a	-0.05199518693542045
101	0xbfb9343cfeda48d6	-0.09845334264744862
102	0xbfbf5403199187c1	-0.12237567304830944
103	0x3f98b91460318f97	0.024143522616568793
104	0x3f93a246cd46e679	0.019173723487006165
105	0xbfc457b370cae2f6	-0.15892642028281728
106	0x3fb01f3e50f451d2	0.06297673679757246
107	0xbfb45fd2e4cb27ab	-0.07958715520649544
108	0xbf7ee963f919fe34	-0.007546797294366626
109	0xbfbc0419efc63e9e	-0.10943758109919563
110	0xbfb305329f0e8fa9	-0.07429806121086692
111	0xbf926af9abf72ea6	-0.017986203309006264
112	0x3faa631920ca9741	0.05153730893407139
113	0xbf635ce87011a8fa	-0.002363637905138491
114	0xbfb586a4d094795a	-0.08408575145992839
115	0x3fbfaab7b1a1dd2f	0.12369869314885727
116	0x3f955d5443337538	0.020863834954856858
117	0x3fac972b3b5cbfe7	0.05584082698476305
118	0xbfb6c625c9f6f9e1	-0.08896099262981451
119	0xbf8100aa4e34efc1	-0.00830205012481844
120	0xbf94325bb7d44485	-0.019723351569215914
121	0xbfb083b7c9927344	-0.0645098559493365
122	0x3faf7a13defd45d6	0.061478253336314445
123	0xbf3df31426806294	-0.00045699350312270706
124	0x3f9106a0228cf3ae	0.016626836880493982
125	0x3fac91db48ef8ab7	0.05580029740646835
126	0xbfc543a2a29e94f5	-0.1661265653648695
127	0xbfbe0edcc0ba9268	-0.11741428094189532
128	0x3f8f96b0c4b95cd2	0.015424138072530989
129	0x3fb3646574091665	0.07575067599199199
130	0xbfb3c6dca3ddf91e	-0.07725314140950387
131	0xbfb389c93c702943	-0.07632119870701097
132	0xbf9ce7ed5f67929c	-0.028228482196839808
133	0x3fa7f2ebae4466ed	0.04677521230969526
134	0x3fc12057876a777d	0.1337994967661266
135	0xbfda96575bbe8b05	-0.4154261012974277
136	0x3fab864d9b3367eb	0.053759026713762946
137	0x3f92fc11d531743a	0.01853969444015411
138	0xbfa6126ebc9c1398	-0.04310937931408104
139	0xbfb1af96db5de251	-0.06908552985795181
140	0xbf919713019a1cc7	-0.017177865002420824
141	0x3f4613061b1d5445	0.0006736545385402989
142	0xbf61e3c1b708d3dc	-0.002183798169677049
143	0xbf88aba1628a583c	-0.012046109027590395
144	0xbf9c6caea34636d4	-0.027758339610548813
145	0x3f9e8fe68d5e3854	0.029845812204762304
146	0xbfc51a8e332302f3	-0.16487290856277745
147	0xbfae9f8217e5fe10	-0.05981070081452
148	0xbfbe680718484c64	-0.11877483694870389
149	0x3f9b2ac662bcf279	0.02653036096238501
150	0x3fa083fedf0442a0	0.03225704643603433
151	0xbfb387711a8b59ed	-0.0762854280286331
152	0xbfb92b017854a9b0	-0.09831246555100992
153	0x3fa72f12c25191e7	0.04528101560643787
154	0xbf7e2df03a82da7e	-0.007368029015359155
155	0xbfb69f35618afd26	-0.08836682921809266
156	0xbfa30b84f6f1ca79	-0.03719726099452187
157	0xbfa338bbe12ae74d	-0.03754222034099417
158	0x3fa4f7cf788dea6b	0.04095314356432741
159	0xbf969f96cb4aa721	-0.02209315887254271
160	0xbf8cb25980ac842c	-0.014012049903216882
161	0xbfb133160b16f3b1	-0.06718576212638429
162	0xbfb30939cd6b3bda	-0.07435952439412521
163	0x3fa19dec65db7dd2	0.03440798514725042
164	0x3fabb6a0d1cdc7cf	0.05412771760064993
165	0x3facff963850388d	0.05663747250956517
166	0x3fa9ac9dbfd893fe	0.05014508215780465
167	0xbfcb854ec92c0a28	-0.2150057298932364
168	0xbfb780c6cd54e1f1	-0.09180872452714774
169	0x3fa31e774f8b668f	0.03734181257250412
170	0xbfab2f70958855e8	-0.053096311810957364
171	0x3f9777cab42c47a9	0.022917906996617585
172	0x3fac7f6fb9fa4ade	0.05565976281390815
173	0x3f63bd3ede0774ae	0.0024095752598741393
174	0x3fb3db702f70eab8	0.07756711157063989
175	0xbfb5557b4b06a243	-0.08333559590995158
176	0x3f76fdc530718afd	0.005613107939185677
177	0xbf617babd4547311	-0.0021341663401827156
178	0x3fb20930cd708341	0.07045273795712338
179	0xbfc3b9e320e69a8a	-0.15411032778247985
180	0x3f8542050e1780e2	0.010379828922794269
181	0xbfcb33b6ab68a8ba	-0.21251567239352714
182	0xbfb8732573ba77a2	-0.09550699305915925
183	0x3f94840be40bb815	0.02003496722584693
184	0xbfa8e30f283968ee	-0.04860732427614943
185	0x3fb59d43592fe54a	0.08443089415950059
186	0xbf793768fee4ba53	-0.006156358851781524
187	0xbf8062ad86180b85	-0.008000713019105774
188	0x3f9676ed357446b0	0.02193804396399085
189	0xbfb81bccd3c9a146	-0.09417419596286888
190	0x3fb9f39d2156019d	0.10137350143305075
191	0xbfc0a299b4e7f408	-0.12996217091850348
192	0x3f995f8969268674	0.024778506319881946
193	0x3f70846bcf10bcb8	0.004032536629025411
194	0xbfbf952de8c74f49	-0.12337004597730784
195	0xbfb09cce46e99f34	-0.06489266616119665
196	0x3f78d316e32317a6	0.006060685542427812
197	0x3f91128e2ab1eca4	0.016672345500847854
198	0x3f76ee06159cf088	0.00559809090355768
199	0x3fa70dc36719e21d	0.04502688058432034
200	0xbfa8e19450859a1c	-0.048596033887225526
201	0x3fbe4c237aa9ea8a	0.11834928269119352
202	0x3facf5cbfdec2664	0.056562781092065945
203	0x3fb54447d7985730	0.08307312978317039
204	0xbfbd631a1314a0b7	-0.11479342428049476
205	0xbfd4760255c5893f	-0.31970270515570925
206	0xbfc1066b9427ea7f	-0.13300842985320924
207	0xbf9bcc697ce8ca3f	-0.02714695763479313
208	0x3fa6bb84bd716499	0.0443994027379599
209	0x3fc61dc98f9aa296	0.1727840377036684
210	0xbfb2a41958d50edd	-0.0728164522052412
211	0xbfaef64fb4e62d03	-0.060472956497585904
212	0x3fba30c5e9881714	0.10230671836333399
213	0xbf99d0795c7fac08	-0.02520932795588851
214	0xbfc37ede06293375	-0.1523091821749422
215	0xbfc2f57900bcdc18	-0.1481162313081945
216	0xbf8647dc69d138e3	-0.01087925146034902
217	0xbfa37fb9e3f96fdb	-0.038083848074819314
218	0x3fcf4afe8fa48e39	0.2444761468296848
219	0xbfa73cece43067a9	-0.04538669858466388
220	0xbfb26ee87f39ec37	-0.07200482469663504
221	0x3f9c8596b0c19b8d	0.0278533501990768
222	0xbf8b96d95ec3a860	-0.013471315578915177
223	0x3fbafc6c4c65ae5f	0.10541416993299312
224	0x3fa9a94a4381585d	0.050119705906283875
225	0x3fa44dc8177a5d4b	0.03965592657658109
226	0x3f8e66bc85514999	0.014844391649749865
227	0xbfb31b07adbed220	-0.07463119499045279
228	0xbfa5140384b8e803	-0.04116831774850029
229	0xbf9f45047f9b974a	-0.030536718643723128
230	0x3fbe844efb90454a	0.11920636789024744
231	0xbfc194387a4e51b6	-0.13733583423585366
232	0x3f9bd3522e98002e	0.02717331323037813
233	0xbfa678d6bea2af84	-0.04389067723363296
234	0x3fb32f5362ceec56	0.07494088327705248
235	0x3faf0b52ad204dea	0.060633262284820535
236	0xbfbb3c80a08ad593	-0.10639194411745327
237	0x3fccb0daa470ac9a	0.2241471579485264
238	0x3fb2171dcb09fd3c	0.07066522795684177
239	0x3fb63263b3984732	0.08670638212813911
240	0xbfb6922f9694fb9c	-0.0881681196815251
241	0xbfc0f75e85d76b1d	-0.1325491097948878
242	0x3fc485ad2f66c496	0.16032948317073153
243	0x3f91ae6dd5d13622	0.01726695649658983
244	0xbfb307a00e0b532b	-0.07433510153653049
245	0xbfb2bdbfcf289222	-0.07320784385280679
246	0x3fb63ec1f0c2cf0a	0.08689510467484865
247	0x3fc92e97a0a6824e	0.19673438400515625
248	0x3fa9a004508c66ca	0.050048956711362516
249	0xbfc8b02c4ded8590	-0.19287637524670886
250	0xbfb0dfbd72368fc1	-0.06591400183111686
251	0xbfb37cee3ca7369f	-0.07612503987112483
252	0x3fa54d71d89a800a	0.04160648125730411
253	0x3fa94d977244500a	0.04942010183199848
254	0xbfb550db1f1bb06d	-0.08326501378513891
255	0xbfc84872e7519ca6	-0.18971096320021735
