params/large_50epochs_90percent/W3.npy (npy, 80128 bytes, 1 tensors)

array f8 [100, 100]
000000 0e 3c 4a 70 01 ca a0 bf 75 ca 7e 55 c6 7b 9c 3f
       -0.032791180569908915 0.027815913170068336
000010 54 fe ab f2 01 46 b8 bf 66 c6 eb a8 8d c0 ab bf
       -0.09481823134046269 -0.054203440542448786
000020 7a 52 bd 66 f3 2c aa bf 3d 89 03 e4 2e 1a b4 bf
       -0.05112419728417179 -0.07852452341788747
000030 66 cb 34 80 4f c0 bc bf a1 2c 95 a0 0b 27 a9 bf
       -0.11230942611727598 -0.04912601790655314
000040 31 d7 71 8d a9 d0 81 bf 9f e7 4d 9f 51 48 b0 bf
       -0.008698773030328151 -0.06360349787965312
000050 d9 1e 93 dc a4 d2 b1 bf 01 39 9d bd 9b 12 c3 bf
       -0.06962042222141508 -0.14900538214210005
000060 4d bd 41 cd 9a 44 ac bf b5 20 a0 45 88 0b be bf
       -0.05521091228080852 -0.11736346912232672
000070 83 b8 d0 bb dd eb 7e bf 1a 5e c0 a0 79 01 e3 3f
       -0.0075491582365839775 0.5939300670315248
000080 75 dc a8 bd 69 02 b7 3f d4 70 1e da ee e0 bd bf
       0.0898805702243964 -0.11671345544022255
000090 f5 61 b4 77 64 4e d2 bf 32 8b 95 35 39 0d ba 3f
       -0.2860346955290248 0.10176427419859804
0000a0 57 60 6f 7d 76 90 87 3f 56 75 1d 70 a4 d2 c5 3f
       0.011506009772276267 0.17049079393738492
0000b0 31 39 2c 70 ea 8f 7c bf 7d f4 55 9c ed 70 be bf
       -0.006973186277504249 -0.11891064707556782
0000c0 c7 24 10 b0 3d 67 b7 bf 03 89 6d ab 2f eb b5 bf
       -0.09141908214964466 -0.0856199067616537
0000d0 0a 71 fa 94 88 86 b0 bf ab a9 f8 d3 f8 16 87 3f
       -0.06455281865277498 0.011274284333087822
0000e0 96 6d 55 36 b0 46 ac 3f 11 00 8f f0 f8 e3 6c bf
       0.0552268091512033 -0.003526674471203258
0000f0 d8 76 67 da b6 d4 a9 3f 44 80 ac e7 2c 0f b7 bf
       0.050451006088889805 -0.09007530838107508
000100 27 85 da f7 03 ae a9 3f c5 4c b4 19 b7 ae ac 3f
       0.0501557579093606 0.05602047146580839
000110 26 f9 d8 d5 85 91 c1 bf e0 8e 62 f2 9f 46 ba 3f
       -0.13725350324416147 0.10264014880754813
000120 02 59 14 1f 28 73 b9 3f ae 83 27 12 d4 50 b7 bf
       0.09941340216423458 -0.09107709353658208
000130 1e 02 f0 39 82 4c b3 bf 16 11 6f f7 dd c5 bb 3f
       -0.07538618006220374 0.10848796168199146
000140 e4 93 f4 97 b2 db 6d 3f b9 bf 1e b1 7f 0a cc 3f
       0.0036447990566039635 0.21907039783900276
000150 83 e5 b6 6d db 47 aa 3f 82 9c b5 5c 7b 27 c3 bf
       0.05132947649276345 -0.14964239146067732
000160 8c 6f c9 43 0d 34 ad 3f 1c e0 3e 66 ac c0 d0 bf
       0.05703774883724497 -0.26175985321924755
000170 a5 8f f5 64 dd ea 6b 3f 74 75 d8 65 4b 05 ac 3f
       0.0034078907116725393 0.0547278940032169
000180 db 6e 09 55 50 97 b8 bf 10 2d af 09 16 2c a3 3f
       -0.09605886531920353 0.03744572513786626
000190 46 6f 2f 27 4e 38 b4 3f 17 3d 19 cc c4 ea a2 bf
       0.07898415047332916 -0.03694739333570334
0001a0 de fc 42 f5 a4 50 bd bf 97 12 e4 96 4c 4b 6a 3f
       -0.11451178539117587 0.0032097335707724317
0001b0 7a c0 2e b8 e3 a9 be bf 2e d5 13 92 20 82 b3 3f
       -0.11977980848928552 0.07620433393806955
0001c0 0d d9 e0 d6 11 50 a3 3f 1d d2 ef fa ae fe bd 3f
       0.03772025821710843 0.11716741205584254
0001d0 93 b9 a7 03 e6 cd be 3f 85 77 1d 75 13 aa b7 bf
       0.12032926167714768 -0.092438903896861
0001e0 81 7c 06 dd c4 10 b6 3f 8f 58 86 38 25 c0 c3 bf
       0.08619337459684752 -0.1543013120651193
0001f0 58 8e 54 3b 56 33 c2 3f c3 ce bc 32 6e 1d ae bf
       0.14219167611109884 -0.05881828660349477
000200 a9 20 5c ae 87 d6 a3 bf 54 78 0e f4 0f e0 b6 3f
       -0.03874610904137061 0.0893564196435091
000210 64 f4 ac 47 97 b5 ba 3f 34 b9 44 a3 eb a6 a4 3f
       0.10433335780995062 0.04033600204489787
000220 75 4a 03 71 ea be c1 bf 9b 7c cc bb 53 dc ab 3f
       -0.13863878744321637 0.054415337252288164
000230 a9 ff a1 6b 7c db a4 bf 47 ac 5d c7 97 8d b7 3f
       -0.04073704542042773 0.09200428597766673
000240 23 33 3e 7a 1e be c0 3f 0f a1 23 9f a1 66 ba bf
       0.13080197304625427 -0.10312852988466069
000250 af 1a 6d 69 89 01 aa bf f2 aa fa 19 12 3b c1 3f
       -0.05079297458592202 0.1346151949740811
000260 78 52 a5 77 3e 13 b6 3f 98 31 a4 d6 cc a5 a8 3f
       0.08623114033736978 0.04813995475896887
000270 51 ef 64 bf 5f 53 a9 bf 76 0c 00 6e b0 88 86 bf
       -0.049464218247946896 -0.011002901417674443
000280 6d 3a 36 ca fe 52 ae 3f c6 07 09 d1 14 1a b3 bf
       0.059226953682004126 -0.0746167192783381
000290 fb 7c c3 d4 e8 5e 98 bf 0c 36 9d d1 eb 5c d6 3f
       -0.023799550996838708 0.3494214579594377
0002a0 26 5c a4 4e 0e d0 bd 3f 2f a6 b6 5a 09 e0 8e bf
       0.11645593090030157 -0.015075753289084918
0002b0 bf 68 fe 17 f6 6c 9e 3f a7 63 da 77 ff 78 c2 bf
       0.029712529386963334 -0.1443175635547764
0002c0 ce b6 86 71 e8 a1 c9 bf 73 e1 20 ff 1b 82 64 3f
       -0.20025353949806973 0.0025034472282891517
0002d0 79 4f c9 c9 87 bb 94 3f ba 15 2d c8 1d bf 73 bf
       0.020246621790945583 -0.004820934615798073
0002e0 2d f7 dc 78 a0 d7 bf bf c3 40 51 75 0a e2 c4 3f
       -0.12438395453224578 0.16314821937931442
0002f0 93 01 cb ac 93 82 dc 3f 58 45 3b 2d d1 d6 b1 bf
       0.44546977876964283 -0.06968409876141857
000300 f2 a1 3b 54 dd 12 9e bf 30 8a 4a 80 a7 59 c3 bf
       -0.02936883761040749 -0.15117353214471185
000310 e8 dc b5 52 a7 84 8e 3f 7d 7b 22 f4 f8 09 93 3f
       0.014901454173680453 0.018592729473876347
000320 d2 b8 e7 e6 f6 23 82 bf df ad 1d 71 bf 97 b7 bf
       -0.008857659265200022 -0.0921592379724454
000330 e0 cd 0e 3f 53 42 97 3f 20 93 19 a9 a5 b5 ac 3f
       0.022713947986359062 0.05607335747916964
000340 b9 03 72 5c 9d c6 a1 bf 16 90 b4 86 cb 04 a9 3f
       -0.03471843484385979 0.0488647081313333
000350 57 d6 cf cc cb 88 b1 3f bb e8 0d 68 49 78 b1 3f
       0.0684935927418676 0.0682416800536058
000360 e9 7d 2c 35 06 c9 b9 bf 8e 30 1c 4b 85 a8 b7 bf
       -0.10072363660992036 -0.09241517146819175
000370 6c ba 02 b1 1f 74 bd 3f ad fd 5f 2e 2a 28 b1 3f
       0.11505315848874326 0.06701911575509341
000380 5e 21 ab c6 f5 04 b0 bf b2 0b 6b d0 cb e8 a3 bf
       -0.06257568455032955 -0.038885468665760384
000390 d7 8b 55 9f 44 c3 a9 bf fa 6d ac 7f 70 9e b5 bf
       -0.050317902040454214 -0.08444884411840539
0003a0 68 4e 03 a7 d5 78 b6 3f b5 0c 62 7f b7 7b 59 bf
       0.08778128936256169 -0.0015553752869273245
0003b0 72 97 6f 5c 41 3f 5c bf 73 72 16 a3 31 b7 a9 3f
       -0.0017240656177306105 0.05022578349892095
0003c0 91 a6 44 e1 b9 ef 9f 3f 44 97 94 0b 5a 85 b4 3f
       0.031187919973638293 0.08015978605962198
0003d0 36 c6 6b 06 e4 85 83 3f 6c 7d 88 bb 30 ab b2 3f
       0.009532720037415659 0.07292465761610395
0003e0 9f 33 20 a6 14 3e b1 bf 88 54 79 81 f8 b9 a3 bf
       -0.06735352569394458 -0.0385282190369845
0003f0 3b 46 86 05 77 42 a1 3f d8 02 d3 93 91 de bd bf
       0.033710212158564144 -0.11667737826338553
000400 42 8e eb b2 5d 31 af 3f 57 9d db b6 64 42 ac bf
       0.06092350777705892 -0.055194041558759004
000410 39 79 20 e9 df 8f 99 bf 7b 53 5b 8f c9 ca b7 bf
       -0.02496290073769922 -0.0929380393020675
000420 d9 67 e7 7b 8e 2e b8 bf e9 af 98 bc d3 38 93 3f
       -0.09446039700506449 0.018771465669644192
000430 5e 3b 7b 75 cf 52 75 3f c6 d2 3e bf 51 c0 b1 3f
       0.0052059272636160985 0.06934081000401723
000440 af 51 eb 61 ef c2 b1 bf 95 9a 47 52 5e 1b b2 3f
       -0.0693807233868202 0.07073010929853248
000450 6c b1 29 ae bc 12 a7 bf f1 75 98 59 a3 a1 65 3f
       -0.04506482721339719 0.0026405516080234494
000460 d7 3e b5 25 8e 08 a6 3f ba 0e 20 52 ab 61 b0 bf
       0.04303402147581686 -0.06399031405458802
000470 42 ed 7d f3 f6 83 9e 3f ea a6 73 fd ac 7a 7d bf
       0.0298002802005446 -0.007197070829741506
000480 85 5f 6c 8f f5 e9 b2 bf 0d 88 02 c5 4d e8 b2 bf
       -0.0738824343828793 -0.07385717449008684
000490 c0 e5 74 09 d8 e9 9f 3f ae 6a 68 80 02 4a a8 bf
       0.03116548116415685 -0.047439649748601695
0004a0 49 1f ab 23 44 ac b7 3f 4b aa 50 2c ec 8c 93 3f
       0.092472323139302 0.019092264370707473
0004b0 dd 9d 10 12 8c 68 b2 3f 60 d2 eb 5a a4 de a3 bf
       0.0719077629188329 -0.038807998751427375
0004c0 c5 9c 38 04 e1 a9 79 bf 82 83 35 cf fe 11 c0 bf
       -0.006265524836215512 -0.12554917447689823
0004d0 d1 ec 33 f5 f7 f6 a3 3f 73 8b 6f 95 33 ad b4 bf
       0.038993595773683894 -0.08076784513791128
0004e0 f0 cd dc be 67 19 85 bf 1c c9 be 67 cf 4c bb 3f
       -0.010302362930452141 0.10664078028529328
0004f0 7d ed d1 12 16 cb b6 bf 8f 6a b1 e6 42 f0 b1 bf
       -0.08903634986375226 -0.07007234699396235
000500 04 8e e4 f8 2d 29 b8 bf 3b f6 e1 c7 cf 21 a5 bf
       -0.09437835051044635 -0.041273587369670094
000510 d2 ff f2 9e 54 ce a0 bf bc f6 c9 63 f1 08 ae bf
       -0.0328241771726422 -0.0586619791329048
000520 76 c2 d7 7a 0d a1 ad bf dc bf 17 dd ae 0e b2 3f
       -0.057869359250507665 0.07053654573223817
000530 51 f3 77 09 3d 8e a0 3f e0 08 40 53 cf 4e a3 3f
       0.0323351930673882 0.03771064654576306
000540 35 33 c1 d2 09 23 b5 bf aa 23 9a c4 03 b9 b8 bf
       -0.08256589312914005 -0.09657310056549187
000550 58 6b cd 05 b9 6d 7e bf 19 4e 64 a1 e9 a5 b9 bf
       -0.007428858513629809 -0.10018787565450572
000560 4d 86 75 c5 e3 69 ac 3f 3d 8a d0 0a 8f 50 bd bf
       0.05549537454022566 -0.11451047910717534
000570 5b eb a4 de d5 e7 b2 3f 1a 04 fa 27 62 79 b5 3f
       0.07385002790117083 0.08388341403953384
000580 9e 0e 88 80 89 37 ab bf af e9 e3 b0 b0 8b 9f 3f
       -0.05315808958041866 0.03080631332066169
000590 7d 1a a4 ce 78 22 70 bf 1d ec 13 75 fa 82 ab 3f
       -0.003939124968616367 0.0537336604993117
0005a0 a3 6a 87 af 84 cb 98 bf 9c e7 fc e8 f3 b0 b6 3f
       -0.02421386071533028 0.08863758505040525
0005b0 b4 c2 ff 7d f8 bb a7 bf c3 5f 1c 76 df 25 b3 3f
       -0.046355977421517564 0.07479664453091943
0005c0 ed d0 10 da 4d d7 8e 3f 81 f1 b6 32 6d 78 ba bf
       0.015059097497307461 -0.10340006340169873
0005d0 87 0f 2d 61 10 85 b5 bf 0d 64 2d ac 69 4a 9c 3f
       -0.08406164524518377 0.02762761224161996
0005e0 76 66 92 07 93 bb a5 bf 61 49 ba e5 28 2b ad bf
       -0.042446703600217114 -0.05696990780156131
0005f0 99 b3 78 16 b2 7e 8b bf 8c c1 5b c6 80 4a bc 3f
       -0.013425246535087075 0.11051182596907533
000600 a7 e8 1b d3 08 2e 95 bf 3c ac a6 be 86 89 af bf
       -0.02068342007167048 -0.06159611775668636
000610 b7 95 24 1f 25 8c 8d bf ba 53 b2 33 e0 e2 ac 3f
       -0.014427461636453793 0.056418424902552514
000620 51 64 58 39 af 7d b2 bf eb c9 a9 9a 9e 52 9a bf
       -0.07223029279738681 -0.02570579356183515
000630 3e a5 49 69 fa 3c b6 bf d5 05 a2 b8 02 c6 79 3f
       -0.0868679530191416 0.006292353276991365
000640 56 ff af e3 b1 c6 bd bf 54 57 be 56 50 12 a6 bf
       -0.11631309326912506 -0.043108473385628315
000650 33 c0 e2 59 e4 a8 6a bf 9f d8 b3 00 d5 bf ac 3f
       -0.003254362104677022 0.0561510623319219
000660 4d 2c 75 86 91 64 b5 3f 97 83 24 90 69 7a ad 3f
       0.08356580288561695 0.057574557157074206
000670 28 f0 b5 c1 71 53 95 3f cf 05 f3 e7 77 fe bd bf
       0.020826127479708273 -0.1171641293795098
000680 76 55 b7 9d 5a 7a 96 3f d8 b0 83 8f 3e a8 bb 3f
       0.021951118351201747 0.1080359554650302
000690 40 de 62 64 ce a0 b2 bf 46 c2 43 3c 82 9a b7 3f
       -0.07276620817980817 0.09220136615091076
0006a0 f2 3b 52 05 09 26 b5 3f 48 14 99 ad 64 2b b4 3f
       0.08261162166512273 0.07878712881309113
0006b0 e0 5d f3 b0 e3 85 93 bf eb 28 1e 0a 67 0a b4 bf
       -0.01906543509980263 -0.07828372952477351
0006c0 cb 4f 21 55 94 4d bc 3f d3 19 31 1d a8 45 a8 bf
       0.11055876806614078 -0.04740643841119021
0006d0 ae 8b 04 32 4e 26 ae bf a9 ff e8 0a 99 de b9 bf
       -0.05888599739616694 -0.10105282322274313
0006e0 a7 16 a8 41 74 cd a8 bf b6 1f f2 b6 79 cf ac 3f
       -0.048442490591736935 0.05627041204667142
0006f0 04 5f ef a2 63 68 ad 3f 19 9f e9 21 d8 a5 93 bf
       0.057437051429301916 -0.01918733317361818
000700 38 3e 37 88 b6 4a bd 3f 30 a6 71 6c 6c fd b2 3f
       0.11442128015118491 0.07417943618352107
000710 61 13 26 69 09 e8 a9 3f c5 ff 85 88 8c 4a b6 bf
       0.050598424993075104 -0.08707502682773256
000720 ab a9 0c b4 2d 2e be bf 8d 77 a8 ca 9d e7 bd bf
       -0.11789212842692247 -0.1168154353876771
000730 20 5c 37 94 b2 5b bf bf 9a 56 cb 7c 69 dd b6 3f
       -0.12249294394074228 0.08931597992644882
000740 b0 6d ad 48 16 5e 64 bf 84 94 66 2e 2b 14 be 3f
       -0.0024862704498624585 0.11749524958448104
000750 0b d3 3d 7a 6f 00 96 bf cd a0 4c dd d1 c4 b7 bf
       -0.021486036144284387 -0.09284698155227318
000760 3d f8 09 a9 51 9c a0 bf f9 cc 39 a4 7c db b5 3f
       -0.03244261921371148 0.08538035401743461
000770 ac 70 f5 6a 92 35 f4 3e 04 b0 46 1b 15 b1 9a 3f
       1.9273057373467878e-05 0.02606614092808003
000780 06 f2 2f 5c 21 f4 a3 3f 74 ab 4d ff 7a b2 bc bf
       0.03897194147427645 -0.11209839566224195
000790 ed fa b4 7b 92 17 b4 bf c3 66 03 81 11 cd b2 bf
       -0.07848468322934439 -0.07344159507502028
0007a0 34 13 df 7d ed cc b3 bf 70 ee e9 34 8a 3a ba bf
       -0.07734569857627777 -0.10245574752655684
0007b0 96 66 0c 6b f6 4c b8 bf 38 61 3d c6 4c 90 a7 3f
       -0.09492435563552201 0.04602279586714747
0007c0 65 1f 75 5d 55 f9 ba bf 92 0f 30 93 50 a2 a0 3f
       -0.10536702663114068 0.032488363234761355
0007d0 14 98 54 d0 b1 ac b2 bf d6 18 19 6b 6d 4b ae 3f
       -0.07294761024658697 0.059169215510836246
0007e0 c0 15 ed f7 0d ea b2 bf ce f3 87 49 95 d1 59 3f
       -0.07388388922580358 0.0015758474238502965
0007f0 af f7 75 6a 13 af ba 3f dc 32 d9 2c 56 8e bd bf
       0.10423394536152729 -0.11545313448841504
