params/large_50epochs_90percent/W4.npy (npy, 80128 bytes, 1 tensors)

array f8 [100, 100]
0	0xbfb3059076846416	-0.07430365460858498
1	0x3fbb249679d1fb41	0.10602703546645122
2	0xbfd1ffd81f4407e3	-0.2812404923753304
3	0xbfb58cc39c109267	-0.08417913971113365
4	0xbfa18dbe71a4f8dd	-0.034284545300111914
5	0xbfb83000b1ebc8b9	-0.09448246330046829
6	0xbfbfbe5b516e2cfe	-0.12399836290403596
7	0xbf99f9640db3ee79	-0.025365413032871296
8	0xbfb06d2e2878cb90	-0.06416595924456048
9	0xbfaee6442d8db8fc	-0.06035054260324732
10	0xbfc136271953ce2f	-0.1344651101750158
11	0x3fbb55a192df428a	0.10677537761444902
12	0x3fbb12257ebe9b3c	0.10574564308499829
13	0xbfc128ab1ed04407	-0.13405360226218496
14	0xbfb44fa5e3982677	-0.0793403320932614
15	0x3fb8f31ce20f4e80	0.09745960730588799
16	0xbfb2620579ef7fdc	-0.07180818774168024
17	0xbfa43e6cf5338bdb	-0.03953876965694977
18	0x3faaf435940fd0fc	0.05264441902537162
19	0x3fd6f121ac45995c	0.3584675009100431
20	0xbfc0442d106183e3	-0.12708056735848947
21	0xbfa6c08d7a274c36	-0.04443781009799645
22	0x3f7032becb397a14	0.003954644478282993
23	0x3fa6fbbd1ab15a63	0.04488936377372423
24	0xbfa1bdcc3e123b44	-0.03465116746621402
25	0xbf9450c4da1090d1	-0.019839359101880675
26	0xbfc9246834834583	-0.19642355503178174
27	0xbfadee56ae89623f	-0.05845900421690375
28	0x3fba2d56ac59a8eb	0.10225431163567904
29	0xbfbd59eeb3eab60c	-0.11465351002217278
30	0x3f95f7aea9ad2b59	0.021452645403125945
31	0xbfbfda4894ce0606	-0.1244244921963614
32	0x3fae4b2c665586f9	0.05916727780528492
33	0xbfb490054bbf45f1	-0.08032258128448412
34	0xbf972d0d9f4aeeb5	-0.022632801864104397
35	0xbfc56ceff5f732a3	-0.1673870039943682
36	0x3fd21a104ba6572c	0.282840799214102
37	0x3f99fe1a96ab0c3f	0.025383391805700702
38	0x3f5031e87df5129c	0.0009884615354433307
39	0xbf64ee1bc5fe01b1	-0.002554945225654325
40	0x3fb4f8b808bfc66f	0.08192014897920229
41	0x3faeacabef7412cf	0.059911129932549316
42	0xbfa59ac4f155eaa6	-0.04219642110816339
43	0xbfb17fd3cd8835f7	-0.06835674064515006
44	0xbfb53b5c3aa253c6	-0.08293701583381993
45	0x3fa3c0248ebe28a1	0.038575308251055825
46	0x3f9d676515555647	0.028714732577404225
47	0xbf91edc73ad8d3b0	-0.017508614508375764
48	0x3fc872f46d67fd0e	0.19100814191913468
49	0xbfc1792b5938a912	-0.13651029449949498
50	0xbf9a7e13dbf13dd7	-0.025871572779861154
51	0x3fb4d337e2623cf4	0.08134793545672264
52	0x3fd7ddcfd71a3c97	0.37291332250692605
53	0xbfc17125e55ac473	-0.13626550387337807
54	0x3fb6bf0ca1187239	0.0888526814746421
55	0xbfb25b91f9125f3c	-0.07170975046971945
56	0xbfbe1edca0ef14a4	-0.11765841416407113
57	0x3fb04a775ae6176d	0.0636362645073782
58	0x3fb164db5e749cab	0.0679452043155943
59	0xbfb02197d80e08af	-0.06301259064460639
60	0xbfb547a9c6179888	-0.08312474333033226
61	0x3fbcf3ec2936d243	0.1130969620342706
62	0xbf9ac7b6243e3add	-0.026152463876821897
63	0x3fb2350818bfb501	0.0711216984197627
64	0x3fa776fc5bc574e3	0.045829664423516346
65	0x3fad4940007ef4a0	0.05719947820714677
66	0xbfd291b21e40a513	-0.2901425643381838
67	0x3fc11d6dd57a978f	0.13371060298703383
68	0xbfb306e07cdb74a2	-0.0743236832453982
69	0xbfab64a8995a6ad7	-0.05350233909594742
70	0x3fb746876a62c4b3	0.0909199366312972
71	0x3f73f650ea2b2e54	0.004873577187662532
72	0xbfb8d2892c787ae0	-0.09696252189358345
73	0x3faad761fa114b8a	0.0524244897611857
74	0xbfa08f453dd56a02	-0.032343066976597626
75	0xbfbd7bfafd9d259c	-0.11517304126495848
76	0x3fa2e1dee71f275e	0.03687950679120776
77	0xbfbb34aac5e445a1	-0.10627238589611078
78	0x3ff126abc15ea0b7	1.0719411424161487
79	0xbfb7adadc43414da	-0.0924938777935326
80	0xbfa3b4e2ac472be7	-0.03848942139628502
81	0x3fb5ca274632c580	0.08511586631609269
82	0x3fb53095462b19ff	0.08277256930441722
83	0x3fb37f09768eb337	0.07615718025654138
84	0xbfaf39fd979c0b4d	-0.060989308125519594
85	0xbf9bc5c44680babe	-0.027121607592728074
86	0x3fc2984668bef266	0.14527206530137277
87	0xbfb4b87dcf10f594	-0.08094011597946454
88	0xbfa1d6948db6c6d5	-0.03484024267107847
89	0xbfa7141435d01f04	-0.045075065201727355
90	0xbf9bb320892be89e	-0.027050503132138297
91	0xbf8a0573c3108252	-0.012705711737056511
92	0xbf86647d845d519c	-0.010933857538170604
93	0xbf8b9006decd5461	-0.013458303141002216
94	0xbfad0afe4066b08a	-0.0567244962324774
95	0xbfb3ae2ffbfafbf7	-0.07687663938393983
96	0x3f780fe543cce997	0.005874534192850687
97	0xbfa33034852c638f	-0.0374771511616877
98	0xbf9fea8ce42e49b9	-0.031168176104594745
99	0xbfa485b8f669220f	-0.04008272178595373
100	0x3fd34b3a51fa239f	0.30146654134346734
101	0xbfc0a604e4cb1d05	-0.13006650134614275
102	0x3fb701b9ab78b46c	0.08987007557216636
103	0x3fa54882da7bcda6	0.04156884114299979
104	0xbf850e4ddb55bff5	-0.010281189209052835
105	0xbfb02497d201eeeb	-0.06305836560380455
106	0xbf64c94ac3c551ec	-0.002537389778959778
107	0xbf9448482ae028f9	-0.01980698358242081
108	0xbfb6e0e0a4a04592	-0.08936885852042156
109	0xbfb4c6bc9ab2fc2e	-0.08115748192629788
110	0x3f858202b5b7ef63	0.010501881762131132
111	0xbfb90d908afc2ffc	-0.09786322968665212
112	0x3fb05cb56578ae37	0.06391462066010765
113	0x3fb78fea76a22792	0.09203973194430962
114	0x3fb25eeac22a9097	0.07176081886660977
115	0x3fa919a8fb056de2	0.04902389587615709
116	0x3fdd7c56de600e7e	0.4607140704758662
117	0xbf79b7ca66c018f6	-0.006278792028757465
118	0xbfab15b95d648bc2	-0.0529001165871459
119	0xbfc107bdd16353a4	-0.1330487511064834
120	0xbfbb3cbb599a60c9	-0.10639544427465632
121	0xbfd281d2ee29adb8	-0.2891738248642599
122	0xbfc080d0144b50a8	-0.1289310549824496
123	0xbfbb1b395a74563b	-0.10588415583000536
124	0xbfa4c23865c76186	-0.040544283317731675
125	0xbfb38a627ce3e9f6	-0.0763303332240993
126	0x3fbec1f3b261f691	0.12014697175069446
127	0xbfbd8d296277f3d9	-0.11543520597474756
128	0x3f292655c26be175	0.0001918773352469584
129	0xbfbdf8eeda324d2b	-0.11707966639578575
130	0x3f94fd07f29f77f4	0.020496486838844377
131	0xbfc35d255fcb13d1	-0.15128009011655633
132	0x3fa1bb124e0146de	0.034630367300122464
133	0xbf9512229cff9489	-0.020576992828769156
134	0x3fb312148c95537b	0.07449463302812191
135	0x3f99155bbb4e9866	0.02449553805094986
136	0xbfc02414e76909e9	-0.1261011247571127
137	0x3f9428d8db6d9bf5	0.01968706931384286
138	0xbfbabd0f3924e789	-0.1044473185073952
139	0x3fc566b8d176e4a9	0.16719732501750187
140	0xbfd2bad1d50287bc	-0.2926525669264455
141	0xbfb92a59ce7a351c	-0.09830247202826964
142	0x3fbded665d80b763	0.11690368445189629
143	0x3fc58ec912fe3359	0.16841996600524103
144	0xbfc3343854951ef1	-0.15003112916951225
145	0x3fcc093eabfb515d	0.21903212926430174
146	0x3fb7c571e4b59c38	0.09285652002073241
147	0x3fd19b9762a0aa73	0.2751215422783055
148	0x3fb96c9ea8f1c253	0.09931365608805125
149	0x3fb36272ae5446a8	0.07572094684680997
150	0xbf96c504b2509943	-0.02223594034526256
151	0x3fc30b8ef6c9e9f6	0.14879023599844715
152	0xbf8b8786a3acf1b6	-0.013442088956815517
153	0x3fc99751190393f6	0.1999303218973691
154	0x3fac148018061137	0.05484390538461741
155	0xbfa07b28cd6b2497	-0.032189631534103195
156	0xbfc05b0b37c6f370	-0.1277784368848205
157	0xbfa67f6e268cfe9b	-0.043940965848830525
158	0xbfa81d37be325237	-0.04709791371093213
159	0xbfa7bb659cad7803	-0.04635160005157959
160	0xbf9211b73edea9e2	-0.017645705425516918
161	0xbfbabe7c940ea45f	-0.1044690953700793
162	0xbf9d870724330683	-0.028835403046065366
163	0xbfbacb1da3d5e918	-0.10466180086033139
164	0xbfb0c9a3977a4dfa	-0.06557676742732346
165	0xbfadc42201ce9b0f	-0.0581369998174549
166	0x3f7c1fc496f126b6	0.006866233757202236
167	0xbfa47715ce9dcd10	-0.039971047851304786
168	0xbf9fb8efe32e0e4a	-0.030978916398011237
169	0xbfa333f7910cd018	-0.03750585218077179
170	0x3fba80c20098e0a6	0.10352718844012773
171	0xbfb2266e1af7e518	-0.07089889677435612
172	0x3f988b5ed8a09a21	0.023969156238445536
173	0xbfa70eb6c7594a3d	-0.04503413375336549
174	0x3f994f18f5b741c7	0.024715795514397756
175	0x3fbeee309e74590d	0.12082198971288367
176	0xbfc461bb1d70a752	-0.15923251092436402
177	0x3f8be25b282ea0bc	0.013615333713304138
178	0xbfbdff4fd7944f88	-0.11717700017135091
179	0x3fa421149f239911	0.03931488459220323
180	0xbfb8fea54590f932	-0.09763558338542991
181	0x3f87360274117e5e	0.011333483855366196
182	0x3fc0c8a122226cdf	0.13112272421572066
183	0xbfb7aa043153dfad	-0.09243799404418836
184	0xbfb2bc5e4d3f51d4	-0.07318677316590733
185	0x3fb52ccf6e6a2683	0.08271500058813257
186	0x3f992eb4bd3b4540	0.02459223179795811
187	0x3f60f1c2812b8bb4	0.00206840504812208
188	0xbf9f4e1970941b20	-0.030571362968682014
189	0xbfb98b2ff5b8f35f	-0.09978008030971129
190	0xbfa45c5d85e1910b	-0.03976719149867066
191	0x3fb107b71aec287d	0.06652397544181272
192	0xbfc5f6450eafbfd0	-0.17157805649867308
193	0xbfbd39bf646c7734	-0.11416240884542789
194	0x3fc73f0a56759c63	0.18161133977557417
195	0x3fbe372a97afacad	0.1180292721107203
196	0xbfb2fe6c347af902	-0.07419468194254722
197	0xbf80e5b0d9d38259	-0.008250600478676139
198	0xbfb37b780b891be4	-0.07610273629789749
199	0x3fd4e424629ca08b	0.3264246905332661
200	0xbfad12e0edefb66a	-0.056784657521217266
201	0x3fbd11e592e77c07	0.11355433308152395
202	0xbfa7a07eed1226d4	-0.04614636081630655
203	0x3fb61cd1a5ec3422	0.08637724209639022
204	0xbfc297326960ddf1	-0.14523916383198768
205	0xbfa03e007c8ede1b	-0.03172303696140607
206	0x3fac13c959d7ed15	0.05483845922204914
207	0x3fb4013c66c10d9b	0.07814385899205549
208	0x3fc585db997d3533	0.16814751619896526
209	0xbfb73bb8eacd5dc9	-0.09075504047847639
210	0xbfc9fab1a4220f26	-0.20296307100590488
211	0xbfa0fc851191097b	-0.03317657317576824
212	0xbfb162de394adb07	-0.06791485689869257
213	0xbfa11e63c696d06b	-0.03343498038466993
214	0xbfaf92202512b6e5	-0.06166172459175615
215	0xbfbe4697343a941f	-0.11826462769620648
216	0xbfa42bf43dc6b241	-0.0393978429231976
217	0x3f87d75e8bb97c46	0.011641253127150485
218	0x3fb5e58d48f9f8a7	0.08553393394137974
219	0xbfc06bcc03d08dfb	-0.12828970133078585
220	0xbfc9067a4357bc6e	-0.1955101803609724
221	0xbf9bf2265dab24b3	-0.027290915934632575
222	0xbfc1cf992553e222	-0.1391478950752268
223	0xbfc400835a27cf3b	-0.15626565839886006
224	0x3fa8ddb57d512a93	0.048566505000583814
225	0xbfb452562d2297bf	-0.07938135721141658
226	0x3fb96ae871475090	0.09928753629293596
227	0x3f9be85401990146	0.027253449056162247
228	0xbfb67e0bea3fef2c	-0.08786081761348602
229	0xbf769f27fa4a79b8	-0.005522876894842481
230	0xbfafbb8ddc27b208	-0.06197779953422261
231	0x3fc84ce24dfe57da	0.18984631355550513
232	0x3fc0ab9fec6be80d	0.13023757022875806
233	0xbfaa668e3378c113	-0.05156368616406062
234	0x3f501638859a8947	0.0009818603488516862
235	0xbfb203a31c956b37	-0.07036799857943953
236	0xbfc1d204dd397da9	-0.13922177125912796
237	0xbfb7ffb96e37f96c	-0.09374579373250008
238	0x3faf84b6ea599632	0.06155940638272418
239	0x3fbcfba99efc0c94	0.11321506625613359
240	0xbfa4c1d94c0eb7cc	-0.04054144910274679
241	0xbf9e7071948bea08	-0.029725813571511522
242	0x3fc9fbfec3881d12	0.20300278232046104
243	0x3fb652afda0d18f0	0.08719920228495304
244	0xbfb4ca416d3d8aea	-0.08121117512704826
245	0x3fb440372d5b94ef	0.07910485131613475
246	0xbfb5e8dc85a95fad	-0.0855844332048707
247	0x3fc5f3780272d056	0.17149257773928878
248	0xbf9604b6ec51b0a0	-0.021502359555981898
249	0x3fb3849fd51caeed	0.0762424369137837
250	0x3fb99836d6f7d972	0.09997885463949333
251	0xbfc3c1dcefee3538	-0.15435373034817146
252	0x3fa00f0f5e6a1308	0.03136489894408184
253	0xbf78ed3f49178d51	-0.006085631569905673
254	0x3fab05e7bee6333b	0.05277942853272185
255	0x3fb1cf5ed6c022e6	0.0695704721730511
