params/large_50epochs_90percent/W5.npy (npy, 8128 bytes, 1 tensors)

array f8 [100, 10]
0	0x3fc0770bda2a8017	0.12863300469052838
1	0xbfd9c1ca397f21dd	-0.4024529992571198
2	0x3fb01bd516119d5f	0.06292468823231932
3	0x3fb40e7a6f0ffd92	0.07834592067228233
4	0x3fc10829b65b59f3	0.13306161312239304
5	0xbfbba907f3a84422	-0.1080479593149595
6	0xbfd21ca6d9e4a234	-0.28299876478789376
7	0x3fc21e9517f5b050	0.14155830068500785
8	0x3fa845a5d5a093f9	0.0474063704753362
9	0x3fc5fa6fc7e91c4f	0.171705219853012
10	0x3f77114558db9edb	0.005631705176462022
11	0x3fad5cce391b3c4f	0.05734867522334552
12	0x3fb1b36f3a1f6065	0.0691442028904717
13	0xbfc211bf77762463	-0.14116662343102168
14	0xbfa68cffcec3038c	-0.04404448889682219
15	0x3f9d94520539f2e0	0.028886109894744716
16	0xbf8b25df7b5f877b	-0.013255830719518738
17	0x3f94f61ab9113d63	0.020470063729871934
18	0x3fb6dc55e351f944	0.08929955291566666
19	0xbfc2e688b43363ed	-0.1476603393446391
20	0x3fb33a282bbca9b9	0.07510615413472167
21	0xbfcb8c3b3b825a55	-0.21521702199670992
22	0x3fa5036921a68eb3	0.04104164634489162
23	0xbfac0201f71251c0	-0.05470281735430005
24	0xbfc97e57c77dd04b	-0.19916817894739078
25	0xbfbabb952167b201	-0.10442478242448062
26	0xbfa8957027589319	-0.04801512222574029
27	0xbfc5f871aede2a80	-0.17164441145390086
28	0x3f9d383115943025	0.028534666959828443
29	0x3f69036f9cf6bd2e	0.0030533962196483055
30	0x3fb44562fccb9ee9	0.07918375655901468
31	0x3fbe4ac98e913021	0.11832866411822397
32	0x3facaa123231fef2	0.055985039355617064
33	0x3f572c49aace9cd4	0.0014143676191709547
34	0x3fb00d24416df1c9	0.06270052525901017
35	0x3fc2e1bc94970d93	0.14751393561719492
36	0x3f83a3e720d013b7	0.009589963616244519
37	0x3fd138d7546da873	0.2690943073745366
38	0xbfb126b23e89d71c	-0.06699670817200992
39	0xbfad2c9cd97a4113	-0.05698099283938709
40	0xbf7fe9812b89a2f5	-0.007791046686727245
41	0x3f98716d29fc4121	0.023870187461455864
42	0xbf90e62082a8dcef	-0.016502864813642878
43	0x3fb4e224662931e3	0.08157565588152908
44	0xbfaa4b22db92ea31	-0.05135449343056953
45	0xbfb40c76e98cbd4b	-0.07831519319437523
46	0xbfc13bb7f216ab04	-0.13463496514062723
47	0xbf8d9c37e349415c	-0.014458119033549259
48	0xbfba657e53ceb3f2	-0.10311116739349283
49	0xbfb40e39635dd49c	-0.07834204364719927
50	0xbfbd58ce5ca6ff30	-0.11463632356662568
51	0xbfd43c53e29a024e	-0.3161821091562488
52	0xbfced612085f4111	-0.24090791138451853
53	0xbf85107cb877b75b	-0.010285353068833982
54	0x3fba220ca7e5f99b	0.10208205317574086
55	0x3fbaabd3bc526857	0.10418437335684537
56	0x3f69b18b1bb960e8	0.003136417098897327
57	0xbfd09af3b0dd1b92	-0.2594575144943799
58	0x3fb5e3b56e480bf0	0.08550580923478868
59	0x3fb5aae006c4a7ae	0.08463859715689523
60	0x3fb4b8b08c61207a	0.08094314028960695
61	0xbfe26d74a2b77c8a	-0.5758612802564056
62	0xbf91a6a5f21f99fe	-0.017237275031130032
63	0xbfce03fda04505a1	-0.23449678731598758
64	0x3fb04c88ab81bbae	0.0636678141324711
65	0x3f500faf1d3fc834	0.000980301866544864
66	0x3fb0ebd60a31b71c	0.06609857319719165
67	0x3fb14d218d18702a	0.0675831765624372
68	0xbfc2ca8d47c2f95d	-0.14680639270768384
69	0x3faf891d2a339340	0.06159297123102769
70	0x3fc619214dbb1d40	0.17264190955595815
71	0xbfc147d4af4e7045	-0.13500460204966394
72	0xbf6303bc93a9d455	-0.0023211177006552766
73	0x3fae0e03ee0f03f4	0.05870067864407949
74	0xbfc287d9388b779d	-0.14477076779342904
75	0x3fc94727ef7f2a1f	0.1974840087335261
76	0xbfb8f1f202bbce9e	-0.09744179312456899
77	0xbfab190c71799e33	-0.052925480701386717
78	0xbfa49d2628dfa3c9	-0.040261452187969456
79	0x3f69040d49e8ef86	0.0030536899132850874
80	0x3fcb3ee934c97380	0.21285739018903982
81	0xbfc9165611a37707	-0.19599414693123426
82	0xbfc3379d9b5443be	-0.15013475498611045
83	0xbfc61dff6543e464	-0.17279045528974557
84	0xbfd05ceeddec1d45	-0.2556721846780941
85	0x3fc6cff981b83942	0.1782218821903801
86	0x3fcaeb7312bc0363	0.21031034865157058
87	0x3faf51caf313ba96	0.06117090432404841
88	0x3f9c9c1e4853367e	0.027939294018145315
89	0xbfd1e87763895618	-0.27981362076147454
90	0xbfbbaf7aa5766f91	-0.10814634837737304
91	0xbfb85e2c48508952	-0.0951869656132989
92	0x3fc1a365e804be0b	0.13779901341466458
93	0x3faa62e06ce52dc4	0.05153561906135054
94	0x3fb582368e357870	0.08401814433952537
95	0xbfb7e261f2efcfdb	-0.09329807454179166
96	0x3f80243fb8fc491e	0.007881639321145214
97	0x3fb424b538670abf	0.07868511797918652
98	0xbfcd6f05351e2139	-0.22995057195317672
99	0xbfc0b956aace1864	-0.13065608348933033
100	0xbf85d19be5ee84bf	-0.010653703646143929
101	0xbfbac084cf9004f2	-0.1045001036400384
102	0x3f92b95cea6792c2	0.01828522854511295
103	0x3f9880b72c6186fc	0.02392851074581069
104	0x3f8c67c5b1105641	0.013869804826792566
105	0x3f9e972357acc388	0.029873420931099598
106	0xbfc5f5f17eeb77b0	-0.17156809518104188
107	0x3f87fd52f71f4ece	0.011713646093915921
108	0x3f829289e73be41a	0.00906856285972606
109	0x3fa03bc05fcf6b81	0.03170586747702143
110	0xbfc86b8481b80a2d	-0.19078117689066812
111	0x3fca3931c6bed75a	0.20487043575638603
112	0x3fd175af98bd222c	0.2728079787816877
113	0x3fcf11428762eccf	0.24271422968545273
114	0xbfd11c37e76836b0	-0.2673473129114923
115	0xbfb87cb4bfc6693b	-0.09565286333091631
116	0xbfcf09ec7cdf5426	-0.24249034974369116
117	0x3fc95316166672b9	0.1978480920196455
118	0x3fcab499d5dbc32e	0.20863650266940098
119	0xbfc39798195f616c	-0.15306378592391512
120	0x3fb76dbd3328a018	0.09151823519698643
121	0xbfd54b0c5bf95766	-0.33270558339915224
122	0xbfba07fd41aecee8	-0.10168440679154467
123	0xbfc3961fd8426517	-0.15301893291033572
124	0xbf954e1ee2e0d4be	-0.020805819127606588
125	0xbf9e7eda8eee43e3	-0.02978078362827209
126	0x3fbca961c3120ca2	0.11195956242049701
127	0x3fb2dacefa42cfa1	0.07365125284087394
128	0xbfbafa6611be340f	-0.10538328107050197
129	0x3f9f91fbf6101ca2	0.030830323117723275
130	0x3fcb3ea88692045f	0.21284967966861054
131	0x3fb6abd232bdb447	0.08855928171915749
132	0x3fc063e0bc6039b1	0.1280480308345893
133	0x3f79a3036694bc32	0.006258977207195081
134	0xbfad56a451e21383	-0.05730165004300771
135	0xbfc4662981587477	-0.15936774078082624
136	0x3fb4c33a06e1b3d2	0.08110392253884349
137	0x3fccd8bc53c0caca	0.22536424722200926
138	0x3fc72592cce97724	0.1808341503664731
139	0x3fcb370b01ff0b18	0.21261727902864247
140	0xbfd0e79fd7d69284	-0.26413723066279027
141	0x3f834662a1190e32	0.009411592999760552
142	0x3fd0657ee74bb978	0.2561948069332156
143	0xbfbc7e5e61b2c1b7	-0.11130323300563459
144	0x3fd0033916970329	0.25019671636623514
145	0xbfc33426247b8c61	-0.15002896100404242
146	0x3fcc9f92b8f07a92	0.22361978559725465
147	0xbfcbe755c891b0b8	-0.2179972867337534
148	0xbfaac9711e67d9f3	-0.05231812950289685
149	0xbfd1b2e34b08484f	-0.27654344870928055
150	0xbfc524792a9062d0	-0.1651755769569463
151	0x3fdb3b542940be08	0.42549613979915124
152	0x3fd0f91c3d0ccefa	0.26520448648373895
153	0xbfc5cd36f257f0c9	-0.17032515366725523
154	0xbfc85530ec62b1fa	-0.1900998262621128
155	0xbfabc183de63fb48	-0.05421077813843184
156	0x3fc66598ce3fffbb	0.1749754912452753
157	0x3fae9638cb10448e	0.05973985174944928
158	0xbfcd78d9f4333914	-0.23025059150536065
159	0xbfc5b231aee85714	-0.16950055160912625
160	0x3fc51cb7422ee7fd	0.16493883830645464
161	0x3fc669760c64060a	0.1750934181691693
162	0x3fc4fbd559aa4667	0.16393534544163232
163	0x3fb1793bdb504f65	0.06825613121355685
164	0xbf852ff77b18a568	-0.010345395511722713
165	0xbfab2a53df9cb2f6	-0.05305730919494593
166	0x3fc3f719e7a25165	0.15597842989212576
167	0x3fc7def3bca3c62d	0.18649145804333625
168	0xbfc34df9052466d2	-0.15081703902324378
169	0x3faf0978d6032e6f	0.06061914074379337
170	0x3fc6b7d022e73627	0.17748452858215666
171	0xbfc1d07f5f085dba	-0.13917534008281313
172	0x3fc2bff1e4fbf393	0.14648269348972728
173	0x3fc4d6385c7c7676	0.16278748050619968
174	0xbfd30a71cff958f4	-0.29751248655283224
175	0x3fbaf896b6e14185	0.10535566296426253
176	0xbfc875a6bcce548b	-0.19109043330232497
177	0x3fc8c57370964b2b	0.19352572438637003
178	0xbfc0f8c8e6926a5c	-0.13259230860133442
179	0x3fa2b9270574eb3e	0.036568850914099546
180	0xbfcbaa34588bf806	-0.21613172839710176
181	0xbfd47274ca8cfbd5	-0.31948585300773163
182	0x3f9d0501bca97f9a	0.028339411869069055
183	0xbf5f0f64f90337a9	-0.0018957601605964303
184	0x3fc3bc8a2ab78563	0.1541912754610549
185	0x3fc12389f7df0a9c	0.13389706233109144
186	0x3fcb775fc9e12342	0.2145805106868242
187	0xbfc313263b22be5c	-0.1490218914745921
188	0xbfb979d2cfa9047c	-0.0995151288016291
189	0x3fa5063f1fef5355	0.041063282631205546
190	0x3faa32209c8b8ddc	0.051163691625130986
191	0xbf935a81ccde3027	-0.018899944428582807
192	0xbf7a2147de769f86	-0.0063793952353207225
193	0x3fa24246ac34e623	0.03566189624912066
194	0x3f99786635e4301f	0.02487334922720674
195	0x3f98c027e0479364	0.024170516075077045
196	0xbfbcfb8c3d7163a0	-0.11321331501075216
197	0x3fac0ab2901af714	0.05476911553476618
198	0x3fb9f6f2bc323177	0.10142438025122212
199	0xbf906ba593013af0	-0.016035639855824735
200	0xbfb98cf70a604b52	-0.09980720523189504
201	0xbfd6dcfbd85a3538	-0.357237778932205
202	0xbfaabfddbed6aaf2	-0.05224507288524717
203	0x3fa5fc055d4bc4b9	0.04293839229456737
204	0x3fd10d62923d959c	0.26644195824914063
205	0xbfb6e25138ca0273	-0.08939082752659448
206	0xbfd512dacc98b3bd	-0.3292757986080764
207	0xbfa34d8b884896a3	-0.0377009967672113
208	0xbf90a6e239b38786	-0.01626161076718049
209	0x3fcdbf27b2d375c8	0.23239608985652027
210	0xbfa248f5910b7ee9	-0.03571288486068431
211	0xbfbd45f9180d8ac8	-0.1143489536021135
212	0x3fb1c8034453451c	0.06945820253465168
213	0xbfbcdf9164a28b58	-0.11278637606532749
214	0xbfa1ce10f9ed19e6	-0.034775286205831965
215	0xbfab604cc670d721	-0.053469084953049036
216	0xbfb5457ace79853c	-0.08309142628560989
217	0x3fbe37bea23de926	0.11803809605581658
218	0x3f59e90aafad8e4c	0.0015814403875190784
219	0xbfa07f83e7066248	-0.03222286410454395
220	0x3fadb54c3cd3a9b9	0.058023817467830203
221	0xbfd8748a7017fe61	-0.3821130842843328
222	0x3fb8124c7588ce84	0.09402921552173821
223	0xbf94b40d83ff7d9e	-0.020218096906203457
224	0x3fd383e9817f9cf9	0.3049262776025468
225	0x3fcf2937641a1067	0.2434453238275893
226	0xbf80faf9d3aff9ae	-0.008291198513686062
227	0x3fd2bc05d82fc4cb	0.2927260028073532
228	0x3fa128b265e256d4	0.03351361745550965
229	0x3fd32bb5c674cebe	0.2995428503083807
230	0xbfc203bf7cc15cc6	-0.14073937980240298
231	0x3fb7aed1bed05e3b	0.09251128109496502
232	0x3fb399f8f1a9eb22	0.07656818294519188
233	0xbfc6774a932836e2	-0.17551548180966053
234	0x3fcce74e199c2bc1	0.22580887079706538
235	0xbfc26e8085d9e983	-0.1439972547121436
236	0xbfc986d951977dfd	-0.1994277618787094
237	0x3fc4d1d8107567da	0.16265393069880824
238	0xbfc0032bc1c2d2c3	-0.12509676896083563
239	0x3fcd086c272aa9b9	0.2268195334666652
240	0x3fc6d16467653f19	0.17826514290435894
241	0x3faa0f12a7121b15	0.05089624680936403
242	0x3fc15fc31686f62f	0.13573492622337954
243	0x3fb9c78825690d4b	0.10070086396540494
244	0x3fad7c0a96aec05c	0.05758698548686489
245	0xbfb9a3650997629c	-0.10014945491946964
246	0xbfabad366f3e7dac	-0.05405588252983348
247	0x3fbf458d6c2d5d07	0.1221550358871931
248	0x3f90354424117cda	0.015828194333491342
249	0x3fbd6ab8f668c3a8	0.11490970626688457
250	0x3fb2f1df2103375b	0.0740031676861838
251	0xbfcd4b2f3167c2c3	-0.22885694420212674
252	0x3fae2bce1a925819	0.05892795633660359
253	0x3fa3df3fb9acfedf	0.038812629142283
254	0x3f94a82ecb179960	0.0201728164155609
255	0x3fb35296010672a2	0.07547891163853618
